fp/Enas on CNN with Pytorch/weights.pth (torch, 162147 bytes, 18 tensors)

layers.conv3_1.weight f4 [32, 3, 3, 3]
0	0x3c9f1703	0.019420153
1	0xbdacf8d4	-0.08445898
2	0xbdcd9961	-0.1003902
3	0x3c157c51	0.009123878
4	0x3bae6212	0.0053217495
5	0xbdac00c3	-0.08398583
6	0x3db4f6a8	0.088361084
7	0x3db7873a	0.08961339
8	0x3de75cd3	0.11297002
9	0xbd4a60a6	-0.049408577
10	0xbdc05eca	-0.093930796
11	0x3d474932	0.04865379
12	0xbe20ffa6	-0.15722522
13	0xbb8db2eb	-0.004324307
14	0xbd9781da	-0.07397814
15	0x3e2ec31a	0.17066613
16	0x3e084f0a	0.13311401
17	0xbe127a1b	-0.14304392
18	0xbe059385	-0.13044555
19	0xbd765ff5	-0.060150106
20	0xbe23f83f	-0.16012667
21	0x3e4467eb	0.19180267
22	0x3e1db8c8	0.1540252
23	0xbde0ee1d	-0.109829165
24	0x3defd90c	0.1171132
25	0xbe410635	-0.18850024
26	0xbe07b226	-0.13251552
27	0xbd664efc	-0.05622767
28	0xbe13d3c8	-0.14436257
29	0xbdb0e441	-0.08637286
30	0x3d2ca302	0.042147644
31	0x3d2a60cb	0.041596215
32	0xbcd11420	-0.025522292
33	0xbe1a0db7	-0.15044294
34	0x3e2c05c4	0.16799074
35	0x3e269eca	0.1627151
36	0xbe332b18	-0.17496908
37	0xbda6138b	-0.08109196
38	0x3ddbdc6c	0.107354015
39	0xbe007c2e	-0.12547371
40	0xbe0f8d7d	-0.14018817
41	0x3e377d00	0.17918777
42	0x3d0b6976	0.034036122
43	0xbdc7984b	-0.097458445
44	0xbdb44e84	-0.08804038
45	0xbe3b84e7	-0.18312417
46	0xbe0b9f13	-0.13634901
47	0x3c66beba	0.014083559
48	0xbd9c9ba6	-0.07646875
49	0xbe2cf6cd	-0.16891022
50	0x3e20fd38	0.15721595
51	0x3ddaca00	0.1068306
52	0xbdda2313	-0.10651221
53	0x3defdc54	0.11711946
54	0x3d9b4b23	0.075826906
55	0xb8ba0d17	-8.871609e-05
56	0xbe2a0a71	-0.16605546
57	0xbd86417b	-0.06555458
58	0xbdd99546	-0.10624175
59	0xbdb98133	-0.09057846
60	0xbcc30362	-0.023805324
61	0xbc93d98b	-0.018048069
62	0xbe3c1921	-0.18368961
63	0x3deccf33	0.115629576
64	0xbd9a63fb	-0.07538601
65	0x3e285140	0.16437244
66	0x3cba6d13	0.022757089
67	0x3e19c59e	0.15016791
68	0x3e21fc8e	0.15818998
69	0xbe023e6b	-0.12719123
70	0x3d02e72a	0.031958736
71	0x3d90d1af	0.07071244
72	0xbd4a2a4e	-0.04935675
73	0x3d9080ea	0.070558384
74	0x3e2f2d40	0.17107105
75	0x3e235cfb	0.15953438
76	0xbde51e2e	-0.11187397
77	0xbe14cbfd	-0.1453094
78	0x3dba296a	0.0908993
79	0xbdb778f9	-0.089586206
80	0x3e0a0e84	0.134821
81	0x3da7f614	0.082012326
82	0xbbbed7f5	-0.005824084
83	0x3d1d093d	0.03833889
84	0xbd948a87	-0.072529845
85	0x3e26f2a0	0.16303492
86	0xbba65d35	-0.005077029
87	0xbe293097	-0.16522442
88	0x3d115a1b	0.035486322
89	0x3e2526aa	0.1612803
90	0x3dd7b6d2	0.10532917
91	0x3e210109	0.15723051
92	0x3e41ff0d	0.1894495
93	0xbd928e44	-0.07156041
94	0xbdae06dc	-0.08497402
95	0xbe19b5a5	-0.15010698
96	0x3e15a647	0.14614211
97	0xbc43ec0e	-0.011958135
98	0x3e17c4a0	0.148211
99	0xbd4ed55f	-0.050496455
100	0x3e176c06	0.14787301
101	0xbcd82708	-0.026385799
102	0x3de4e979	0.11177344
103	0x3ddaf9e6	0.106921956
104	0x3d35c740	0.044379473
105	0xbb8e91f8	-0.004350897
106	0x3e0c9025	0.13726862
107	0x3e0c95f2	0.13729075
108	0xbe1f798b	-0.15573709
109	0xbdac3b5a	-0.08409758
110	0x3d977255	0.07394854
111	0x3e12e396	0.1434463
112	0xbcb15aec	-0.0216498
113	0x3e1ec383	0.1550427
114	0xbdb2fb72	-0.08739366
115	0xbc7d96e7	-0.015477872
116	0x3e046c44	0.12931925
117	0xbdd2a863	-0.102860235
118	0xbd309c5f	-0.043117877
119	0xbe2504e2	-0.16115144
120	0xbe3ee054	-0.18640262
121	0x3d0701c0	0.032960653
122	0xbe0f78df	-0.14010952
123	0xbd9d4fda	-0.07681246
124	0xbe0dd6ce	-0.13851473
125	0x3cdd16ff	0.026988504
126	0x39f3b9dc	0.00046487048
127	0xbd9c6dd2	-0.07638134
128	0xbe072948	-0.13199341
129	0x3d5402c6	0.051760457
130	0x3dc66f4e	0.096891984
131	0x3e3974a0	0.18110895
132	0x3d73b82d	0.059501816
133	0x3de73105	0.112886466
134	0xbd98b6c5	-0.074567355
135	0x3e189501	0.1490059
136	0x3e2d0502	0.16896442
137	0x3bc5306e	0.006017736
138	0xbe13a23f	-0.1441736
139	0xbe2392cb	-0.15973966
140	0x3df58708	0.11988646
141	0xbe296bd8	-0.16545045
142	0xbe0063d7	-0.12538086
143	0x3e126592	0.14296558
144	0x3e10d742	0.14144614
145	0x3d9301c6	0.07178073
146	0x3d875935	0.06608812
147	0xbd2dcaf9	-0.042429898
148	0xbe14da1b	-0.14536326
149	0x3e3d89fe	0.18509671
150	0x3e03221f	0.12805985
151	0xbdc98f58	-0.09841794
152	0xbe318406	-0.17335519
153	0xbda6d2e7	-0.08145695
154	0x3d7528be	0.059853308
155	0x3d921eb4	0.071347624
156	0xbdf5da1c	-0.12004492
157	0x3d2758b0	0.040856063
158	0xbe1bdf17	-0.15221821
159	0xbdce8195	-0.100833096
160	0x3e20790c	0.15671176
161	0x3d85e4b8	0.06537765
162	0x3d9c5555	0.07633463
163	0x3e1c2d0b	0.15251558
164	0xbd175204	-0.03694345
165	0x3e3706cd	0.17873688
166	0xbdb9c716	-0.09071176
167	0x3dfa4589	0.12220294
168	0xbd746e17	-0.059675302
169	0x3d7a4676	0.061102353
170	0xbe2b6f49	-0.1674167
171	0xbe3e4610	-0.18581414
172	0xbd92290d	-0.07136736
173	0xbda99df9	-0.08282084
174	0x3d9dfe27	0.07714491
175	0xbe395652	-0.18099335
176	0xbe2ebec1	-0.17064954
177	0xbd2ccfcd	-0.04219036
178	0x3e3583cd	0.1772606
179	0xbe331df4	-0.17491895
180	0xbc89272c	-0.016742311
181	0xbe044780	-0.129179
182	0x3df077a3	0.11741569
183	0x3e2d91c6	0.1695014
184	0xbe2f2b5b	-0.17106383
185	0x3c3f27ec	0.011667233
186	0xbe351f14	-0.17687637
187	0xbe3854b2	-0.18001059
188	0x3db36cfd	0.08761022
189	0xbd938453	-0.07202973
190	0xbcfd835e	-0.03094643
191	0x3e25ea05	0.16202553
192	0xbe329d40	-0.17442799
193	0x3b2cece9	0.0026386327
194	0xbc486b94	-0.01223268
195	0xbe03de69	-0.12877811
196	0x3bfcf61c	0.007719768
197	0x3e136190	0.14392686
198	0x3bdd4cb0	0.0067535266
199	0xbb4ccd2e	-0.0031250226
200	0x3e37ca37	0.17948233
201	0xbd27ec46	-0.040996812
202	0xbc393fd7	-0.0113067245
203	0x3e21fb8c	0.15818614
204	0xbd09b88b	-0.03362326
205	0x3dd007d3	0.10157742
206	0x3e2ec18b	0.17066018
207	0x3d10aad5	0.035319168
208	0x3def97c2	0.116988674
209	0xbdb09d56	-0.086237594
210	0xbe342e53	-0.17595796
211	0x3e1a3ed3	0.15063028
212	0xbdd209f1	-0.102558024
213	0xbe1745a8	-0.14772666
214	0xbe0b0590	-0.1357634
215	0xbc2f385d	-0.01069459
216	0xbdfc9aca	-0.12334211
217	0xbd9f7b50	-0.07787192
218	0xbd4fa2ab	-0.05069224
219	0xbe360776	-0.17776284
220	0x3d6aab6a	0.05729238
221	0xbdcd3788	-0.10020357
222	0xbd1e646b	-0.038669985
223	0x3e0c9ce3	0.13731723
224	0x3df0a1fa	0.117496446
225	0x3c3bc365	0.01146016
226	0xbe3ac3bf	-0.18238734
227	0xbd18ed23	-0.037335526
228	0x3cd4a559	0.02595775
229	0x3ce5b83a	0.028041948
230	0x3ddd88a3	0.10817077
231	0xbd10d152	-0.035355873
232	0x3d05d332	0.032672115
233	0x3b2748c4	0.002552555
234	0x3e306519	0.17226066
235	0x3dba5a7a	0.09099288
236	0x3dff883d	0.12477157
237	0xbd00ebf7	-0.031475034
238	0xbd1ac718	-0.037787527
239	0xbe09854f	-0.1342976
240	0xbe269f83	-0.16271786
241	0xbc3e87e6	-0.01162908
242	0xbd8e4768	-0.069472134
243	0xbd4c55c3	-0.049886476
244	0xbd905ba9	-0.07048733
245	0xbe10be4b	-0.14135091
246	0x3e3c007c	0.1835956
247	0xbe0ffdb0	-0.14061618
248	0xbd99ac3a	-0.07503553
249	0xbdb0c4a8	-0.08631259
250	0x3e34cda4	0.1765657
251	0xbe0ba90b	-0.13638704
252	0x3da42773	0.08015337
253	0x3dfe311d	0.12411711
254	0xbe3961cd	-0.18103714
255	0x3de85805	0.113449134

layers.conv3_1.bias f4 [32]
0	0xbda5a05a	-0.08087225
1	0xbe09a820	-0.13443041
2	0xbce56053	-0.028000033
3	0x3d24ee4d	0.040266324
4	0x3d50d1c0	0.050981283
5	0xbd37eaea	-0.044901766
6	0x3d81cbc9	0.06337697
7	0x3db18da8	0.08669597
8	0xbe44063f	-0.19143008
9	0x3e20a12f	0.15686487
10	0x3e432ed5	0.19060834
11	0x3d74c7f0	0.059760988
12	0x3db01502	0.08597757
13	0xbc63b59d	-0.01389828
14	0xbe322793	-0.17397909
15	0xbd5dcc9f	-0.05415022
16	0xbd5f5261	-0.054521922
17	0x3db1d6eb	0.086835705
18	0x3d7049c9	0.058664117
19	0x3e3550c6	0.17706594
20	0xbd90f88f	-0.07078659
21	0x3db0d80b	0.08634957
22	0x3d040f15	0.032240946
23	0xbe25b870	-0.16183639
24	0x3b3e8379	0.0029070063
25	0xbe0f12ca	-0.13972011
26	0x3e2b6878	0.1673907
27	0x3da784c0	0.08179617
28	0xbdd22cd3	-0.10262456
29	0x3e06b0c7	0.13153373
30	0xbe332555	-0.1749471
31	0x3d9bdc88	0.076104224

layers.conv5_1.weight f4 [32, 3, 5, 5]
0	0xbe427176	-0.18988594
1	0xbe01ccf5	-0.12675841
2	0xbd44b9c7	-0.048028734
3	0xbd9a0aeb	-0.07521614
4	0xbdc5cc5f	-0.09658121
5	0xbc90434c	-0.017610215
6	0xbc493567	-0.0122807985
7	0xbd248c6f	-0.04017299
8	0x3d3529d1	0.044229332
9	0xbdd2c5bb	-0.1029162
10	0xbb631cc6	-0.0034654601
11	0x3d117e57	0.035520878
12	0x3dcb715f	0.09933733
13	0xbd4014be	-0.04689478
14	0xbdd60455	-0.10450045
15	0xbd269bb1	-0.040675823
16	0xbb8a3d72	-0.0042187506
17	0xbc248077	-0.010040394
18	0xbd318308	-0.04333785
19	0x3b0b79d1	0.0021282325
20	0xbd3c6866	-0.045998
21	0xbdaf1331	-0.08548582
22	0xbdd23caa	-0.10265477
23	0x3bb017a3	0.0053739115
24	0xbd87dead	-0.06634269
25	0x3d613772	0.054984517
26	0x3d67934e	0.056536965
27	0x3d90191d	0.0703604
28	0xbb955830	-0.004557632
29	0x3da58468	0.08081895
30	0x3d962aad	0.073323585
31	0xbb111082	-0.0022135084
32	0x3cf863a4	0.03032095
33	0x3da05d88	0.0783034
34	0x3db28c64	0.08718184
35	0x3be25c90	0.006908007
36	0x3d1d9661	0.03847349
37	0x3da46fa3	0.080291055
38	0x3d731640	0.05934739
39	0x3d403440	0.04692483
40	0x3d381b1e	0.044947736
41	0x3d0f651e	0.035008542
42	0x3d472786	0.048621677
43	0x3cd8dbd7	0.026472015
44	0xbb6d5bfc	-0.0036218157
45	0xbbfaa479	-0.007649001
46	0x3dd8cf01	0.10586358
47	0xbcc5c10f	-0.02413991
48	0x3dca9ba1	0.09892965
49	0x3d1a940d	0.03773885
50	0x3db33cee	0.08751856
51	0xbc866747	-0.016406668
52	0x3cff8c1b	0.031194737
53	0xbb8ae032	-0.004238152
54	0x3d2f6989	0.042825256
55	0x3e11c607	0.14235698
56	0x3e2bbb12	0.1677058
57	0x3d2648f9	0.040596936
58	0x3d0e59c0	0.03475356
59	0x3e1229c0	0.14273739
60	0xbc771649	-0.015080997
61	0x3cecbb9d	0.028898055
62	0xbd7d18db	-0.061791282
63	0x3e03328c	0.12812251
64	0x3da5bc5b	0.080925666
65	0x3ca0307b	0.019554367
66	0xbdfd2bd1	-0.12361873
67	0xbd0b4e78	-0.03401038
68	0xbdc5fed2	-0.09667744
69	0x3c13579e	0.0089930575
70	0xbe07a4a6	-0.13246402
71	0xbc8feffe	-0.017570492
72	0x3c87853b	0.016543021
73	0xbdcd3d48	-0.10021454
74	0xbe26f4c0	-0.16304302
75	0xbde52374	-0.11188403
76	0x3cca74b7	0.024713857
77	0x3d078e11	0.03309447
78	0x3dc47d81	0.095942505
79	0xbdbd4db7	-0.092433386
80	0x3d975529	0.0738929
81	0xbd2ea165	-0.042634387
82	0xbd0dd50e	-0.034627013
83	0xbd1126cd	-0.035437394
84	0x3dc4d5cb	0.0961109
85	0xbd778f3b	-0.06043933
86	0x3c810f62	0.015754405
87	0x3d38f5ba	0.045156218
88	0xbdd426e1	-0.10358978
89	0xbda196b5	-0.07890073
90	0x3da70817	0.0815584
91	0xbce14bf9	-0.027502047
92	0x3d9f6456	0.077828094
93	0x3e0f7309	0.14008726
94	0xbdd309a9	-0.10304577
95	0xbb4f7162	-0.0031653275
96	0x3dbc90ec	0.09207329
97	0xbd8deb55	-0.06929652
98	0xbd288276	-0.041140042
99	0x3e17e8cc	0.14834899
100	0xbd55f344	-0.05223395
101	0x3da9b31d	0.08286116
102	0x3d0cb27a	0.034349896
103	0x3dcc6b30	0.09981382
104	0xbd826514	-0.06366935
105	0x3d8c019a	0.06836243
106	0xbdcd4b4a	-0.10024126
107	0x3d8a69b7	0.06758445
108	0xbdb3ae45	-0.08773474
109	0x3dd3bf3e	0.10339211
110	0x3ddc3bdd	0.107536055
111	0x3d29a179	0.041413758
112	0xbdf5ecc9	-0.12008054
113	0x3ce6f63d	0.028193587
114	0x3dd912c1	0.1059928
115	0xbb263b18	-0.0025364812
116	0x3da3b403	0.07993319
117	0xbc74f554	-0.014951069
118	0x3d715630	0.058920085
119	0xbc594632	-0.013261365
120	0x3b12b643	0.0022386468
121	0x3cbaac73	0.022787308
122	0x3e2ee6c1	0.17080213
123	0x3cec103f	0.02881634
124	0x3e06e055	0.13171513
125	0x39f45e00	0.00046609342
126	0xbd773e81	-0.060362343
127	0xbe186217	-0.14881168
128	0xbc4f231e	-0.01264265
129	0xbd4b50bf	-0.049637552
130	0xbd858fae	-0.06521545
131	0xbcd17682	-0.025569204
132	0x3b771131	0.0037699456
133	0xbe139758	-0.14413202
134	0xbccb66b5	-0.024829248
135	0xbdab5634	-0.08366051
136	0x3c98303e	0.018577691
137	0x3bbf834d	0.0058445097
138	0x3cc0c3a3	0.023530787
139	0xbd8f05ba	-0.06983514
140	0xbd21901d	-0.039444078
141	0xbd63594a	-0.055505075
142	0x3cf67ae5	0.030087898
143	0xbc4ab090	-0.012371197
144	0x3c4b3862	0.012403579
145	0x3d6848ff	0.05671024
146	0x3b6d6dbb	0.0036228735
147	0xbceec195	-0.029145041
148	0x3d1e6a4a	0.038675584
149	0xbda260a1	-0.07928587
150	0xbd53c7d3	-0.05170424
151	0xbddb49a6	-0.10707407
152	0xbd4ab6fb	-0.04949091
153	0xbd18f5fa	-0.037343957
154	0xbd4da036	-0.050201617
155	0x3dc8d62f	0.09806477
156	0x3da8560b	0.082195364
157	0x3df8093d	0.12111137
158	0x3d96b2dd	0.07358334
159	0xbd831df7	-0.064022
160	0xbd8fa00c	-0.070129484
161	0xbbce75d3	-0.006300667
162	0xbd4e87de	-0.05042254
163	0x3c180d5a	0.009280527
164	0x3d317e80	0.04333353
165	0xbd63823e	-0.05554413
166	0xbc406c8b	-0.011744629
167	0x3dfe3c99	0.12413902
168	0xbd7893fe	-0.06068801
169	0x3d961db7	0.073298864
170	0xbd87fbfc	-0.06639859
171	0xbd93d752	-0.072188035
172	0x3ce95a15	0.028485337
173	0xbd1b3ec6	-0.037901662
174	0xbdf35e92	-0.11883272
175	0xbd69e692	-0.057104655
176	0x3cdb5ce2	0.026777688
177	0x3d95b50d	0.07309923
178	0xbd8a3710	-0.067487836
179	0xbb91ba05	-0.004447224
180	0x3db5df90	0.08880532
181	0xbd8e419b	-0.06946107
182	0x3d17d2c9	0.037066255
183	0xbd0abf19	-0.03387365
184	0x3dbec6f5	0.09315292
185	0x3d65bc42	0.05608774
186	0xbd5dcde7	-0.054151442
187	0x3d90ce04	0.07070544
188	0xbcd6881b	-0.026187947
189	0xbc7be5a3	-0.015374574
190	0x3dbdceea	0.09267981
191	0xbcbf083d	-0.023319358
192	0x3d2e5d79	0.04256961
193	0x3d8f0423	0.06983211
194	0xbe081471	-0.13289048
195	0xbd2804c9	-0.04102019
196	0xbd45d086	-0.048294567
197	0xbcf0ab40	-0.029378533
198	0xbe0bb0b5	-0.13641627
199	0xbb8481de	-0.0040438017
200	0xbba4971b	-0.005022896
201	0x3b9a0818	0.004700672
202	0xbda7739b	-0.08176347
203	0xbd05d773	-0.03267617
204	0x3dede2c1	0.116155155
205	0x3e32febb	0.17479984
206	0x3dd57e62	0.10424496
207	0x3dddd20a	0.108310774
208	0x3d51a013	0.05117805
209	0x3e1592cc	0.1460678
210	0xbc4a6825	-0.012353932
211	0x3dd3cf4a	0.103422716
212	0x3df2e574	0.11860171
213	0x3db664e6	0.089059636
214	0x3e188228	0.148934
215	0x3d9473e9	0.072486706
216	0xbca6e5b7	-0.020373208
217	0xbd22da45	-0.03975894
218	0x3c21c211	0.009872929
219	0x3c279d3c	0.010230359
220	0xbe3ae598	-0.18251646
221	0xbe1f0b6a	-0.15531698
222	0xbdf2bb39	-0.11852116
223	0xbd2aaad4	-0.04166682
224	0xbe7e4fbb	-0.24835102
225	0x3b0ee24c	0.0021802364
226	0xbc326633	-0.010888624
227	0xbbdbfed4	-0.0067137275
228	0xbd3c8241	-0.046022657
229	0xbd3293c1	-0.04359794
230	0xbd9606ac	-0.07325491
231	0xbdf1a0aa	-0.11798222
232	0xbde0ca68	-0.10976106
233	0xbbd95f81	-0.0066336994
234	0xbe101329	-0.14069809
235	0x3d826c27	0.06368285
236	0x3d4a7626	0.04942908
237	0x3d71bb89	0.059016738
238	0x3d6877bd	0.056754816
239	0x3d416b91	0.047221724
240	0x3ba0f693	0.0049122064
241	0x3db0f619	0.086406894
242	0x3d0994cd	0.033589173
243	0x3d05d800	0.032676697
244	0xbcae5b3c	-0.021283738
245	0x3d8f3f54	0.06994501
246	0x3d21cfb8	0.039504737
247	0x3d120efe	0.03565883
248	0x3dba1029	0.090851136
249	0x3df19e6b	0.11797794
250	0xbda2828c	-0.07935056
251	0xbd1bfe6c	-0.038084432
252	0x3b05928e	0.0020381543
253	0xbc688e1e	-0.01419404
254	0x3c96d1f7	0.018410666
255	0xbd7d75e4	-0.061880007

layers.conv5_1.bias f4 [32]
0	0x3d3e7314	0.046496466
1	0x3d70a67f	0.058752533
2	0xbd2a6a25	-0.041605134
3	0x3dcc96af	0.09989678
4	0x3ce14b01	0.027501585
5	0x3ce176f8	0.027522549
6	0xbb3a7b7e	-0.0028454955
7	0xbdba574b	-0.09098681
8	0x3d9a49bc	0.07533595
9	0x3c2f982a	0.010717431
10	0xbc620fe9	-0.013797739
11	0x3caba414	0.020952262
12	0xbd0d2f6b	-0.03446905
13	0xbc867172	-0.016411517
14	0x3c8adf7d	0.01695227
15	0x3c1ce6e8	0.009576537
16	0xbde8c530	-0.113657355
17	0x3d008676	0.031378232
18	0xbe03a4fe	-0.12855908
19	0xbd7f8133	-0.062379073
20	0x3dd3eafb	0.10347553
21	0xbe18887c	-0.14895815
22	0x3db17f08	0.086668074
23	0x3d0a8ac5	0.033823747
24	0xbda8f367	-0.0824955
25	0x3d70fc2a	0.058834232
26	0x3dd9f6f7	0.10642808
27	0x3cd320a6	0.025772404
28	0xbe447b3a	-0.19187632
29	0x3e0b49b9	0.13602342
30	0x3df94992	0.121722355
31	0x3dc7b0c2	0.09750511

layers.bn_1.weight f4 [32]
0	0x3fde5608	1.7370005
1	0x3fcc2cca	1.5951169
2	0x400162b2	2.021649
3	0x401fe882	2.4985662
4	0x3ff6400a	1.9238293
5	0x3ff31105	1.8989569
6	0x3fd78e33	1.6840271
7	0x3ff3eca6	1.9056594
8	0x40183628	2.3783054
9	0x3fedabbb	1.8568033
10	0x3feca09e	1.8486516
11	0x3ff79cc4	1.9344716
12	0x3fd6cc34	1.6781068
13	0x3fddb95a	1.732219
14	0x3ffda468	1.9815798
15	0x3fcb32d2	1.5874884
16	0x3fe4bc49	1.786996
17	0x40012143	2.0176551
18	0x3ffa3c04	1.9549565
19	0x3fe54d58	1.7914228
20	0x3fcddfcc	1.6083922
21	0x40030b29	2.0475562
22	0x3fcf2456	1.6182964
23	0x3fe5f7fd	1.7966305
24	0x3fe1bece	1.7636354
25	0x3fef3702	1.8688662
26	0x3fbd7087	1.4799966
27	0x3fd43129	1.6577502
28	0x3ff78027	1.9335984
29	0x4028e434	2.6389284
30	0x3ffac8bc	1.9592509
31	0x3ff782aa	1.933675

layers.bn_1.bias f4 [32]
0	0xbedff3a8	-0.43740582
1	0x3e0ec55a	0.13942471
2	0x3e98e8ea	0.298652
3	0xbdbedef3	-0.09319868
4	0x3dfc4bc8	0.123191416
5	0xbeaa9c3d	-0.33322325
6	0xbed1aee4	-0.40953743
7	0xbf145221	-0.5793782
8	0xbeeab7e4	-0.45843422
9	0xbeaf6a67	-0.34260866
10	0xbdb70824	-0.089370996
11	0xbeb5337b	-0.3539084
12	0xbed1900f	-0.4093022
13	0xbd4fac86	-0.05070164
14	0xbeb4227e	-0.35182565
15	0x3d3b0fd5	0.045669395
16	0x3b006c5c	0.0019595837
17	0xbf06bf36	-0.52635515
18	0xbe215b7c	-0.15757555
19	0xbe4f234d	-0.2022831
20	0xbe99f07f	-0.30066296
21	0x3e9bce55	0.30430856
22	0x3e4e7375	0.20161231
23	0xbf00b722	-0.5027944
24	0xbd2e93ed	-0.04262154
25	0xbe1b7974	-0.1518305
26	0x3e0445b5	0.12917216
27	0x3eaf2514	0.34207976
28	0xbe1f45e1	-0.15554
29	0xbe1b7330	-0.1518066
30	0xbd2ddbd7	-0.042445984
31	0xbebf1ff2	-0.3732906

layers.bn_1.running_mean f4 [32]
0	0x3e095f3a	0.13415232
1	0x3e00ed7e	0.12590596
2	0xbca76106	-0.020432007
3	0x3e1c03a9	0.15235771
4	0xbc13788b	-0.009000908
5	0x3d44e682	0.048071392
6	0x3dcaab09	0.098959036
7	0x3aba1ceb	0.0014199292
8	0xbc9c1f48	-0.019057885
9	0x3d77cdb4	0.06049891
10	0xbdf7acba	-0.12093492
11	0x3e25fda8	0.16210043
12	0xbef7be01	-0.4838715
13	0xbdb10709	-0.0864392
14	0xbd10b1d1	-0.03532583
15	0x3e1fa9b0	0.15592074
16	0xbe30a553	-0.17250566
17	0xbdc5c979	-0.096575685
18	0xbd3aa34a	-0.04556588
19	0xbe8f55b3	-0.2799507
20	0x3e86a735	0.26299444
21	0xbebc3149	-0.36756352
22	0x3dc2a3cf	0.095039
23	0xbbc82bcc	-0.0061087366
24	0xbe6c85db	-0.23097937
25	0xbe2512d3	-0.16120462
26	0x3e74127b	0.23835175
27	0x3f332afe	0.69987476
28	0xbe336ff7	-0.1752318
29	0x3b4ba690	0.003107462
30	0x3d5ffff4	0.054687455
31	0xbcdeffc4	-0.027221568

layers.bn_1.running_var f4 [32]
0	0x3e2ea214	0.17054015
1	0x3db7ef57	0.08981197
2	0x3e598b12	0.21244457
3	0x3da2a816	0.07942216
4	0x3e8bb086	0.27283114
5	0x3e563cc4	0.20921618
6	0x3e48388b	0.1955282
7	0x3e79e6f6	0.24404511
8	0x3db62aaf	0.0889486
9	0x3e78ee0b	0.24309556
10	0x3e3ff4df	0.18745755
11	0x3e958084	0.29199612
12	0x3eeba319	0.4602287
13	0x3d6d650c	0.057957694
14	0x3dc9b35b	0.098486625
15	0x3e9ac422	0.30227762
16	0x3dcdd7e1	0.10050941
17	0x3e82ffd4	0.25585806
18	0x3e8e4726	0.27788657
19	0x3e4b4287	0.19849597
20	0x3e88328a	0.26601058
21	0x3defaba0	0.11702657
22	0x3e8d72a5	0.2762653
23	0x3e4471a1	0.19183971
24	0x3e513539	0.20430459
25	0x3e42ce8f	0.19024108
26	0x3ec67c02	0.38766485
27	0x3f5aac21	0.854189
28	0x3e52f442	0.2060099
29	0x3e2113cb	0.15730207
30	0x3e0807e7	0.13284265
31	0x3ea78bc8	0.32723832

layers.conv3_2.weight f4 [32, 32, 3, 3]
0	0x3d35fa36	0.044428073
1	0x3b221754	0.0024733143
2	0x3d6e4467	0.058170702
3	0x3bd5988d	0.0065184296
4	0x3c5639bc	0.013075288
5	0x3d386b6f	0.04502433
6	0x3d403be3	0.046932112
7	0x3d46245b	0.048374515
8	0xbca05d4d	-0.01957574
9	0xbcf5ae20	-0.029990256
10	0x3d7cd211	0.061723772
11	0x3da713e2	0.08158089
12	0x3ca9d250	0.020730168
13	0x3dad817c	0.08471963
14	0x3dbbf647	0.09177833
15	0x3d242ee2	0.040083773
16	0x3d3950ab	0.045242947
17	0x3d2713c0	0.04079032
18	0xbcf76f25	-0.030204365
19	0x3cd10bde	0.025518354
20	0xbce07814	-0.027401008
21	0xbd314043	-0.043274175
22	0x3d372c97	0.04472026
23	0x3d04be03	0.03240777
24	0xbbed13c4	-0.0072350223
25	0xbd73cf3e	-0.059523813
26	0xbc696c07	-0.014246947
27	0xbd32a5ac	-0.04361503
28	0xbd17c6e5	-0.037054915
29	0xbd5d727c	-0.05406426
30	0xbc2f9dd7	-0.010718784
31	0xbd46cbc7	-0.04853418
32	0x3d2304c2	0.03979946
33	0xbd69ee33	-0.05711193
34	0x3c1ab270	0.009441957
35	0xbcec35ee	-0.02883431
36	0x3d074d4a	0.033032693
37	0xbd7400d1	-0.05957109
38	0xbdb3e12a	-0.08783181
39	0xbd228f86	-0.039687656
40	0xbd18f43a	-0.037342288
41	0xbd6d75f3	-0.057973813
42	0xbc2d78b2	-0.010587858
43	0xbc96c7d7	-0.018405838
44	0xbbde8635	-0.006790901
45	0x3c084c17	0.0083189225
46	0xbd0a64a6	-0.033787392
47	0xbd546d1d	-0.05186187
48	0xbcb8797a	-0.022518862
49	0xbca41318	-0.020028636
50	0x3cc97a95	0.024594584
51	0xbb3ab8e5	-0.0028491553
52	0xbab57f7d	-0.0013847199
53	0xbd0ed379	-0.034869645
54	0xbc208f85	-0.009799843
55	0xbd425052	-0.04743988
56	0xbd6e335a	-0.05815444
57	0xbc243a16	-0.010023614
58	0x3aa08f1c	0.0012249681
59	0x3d4ab8ec	0.04949276
60	0xba5efb11	-0.000850604
61	0x3d0cac49	0.03434399
62	0x3c70f1e9	0.014706113
63	0xbcad91e2	-0.021187726
64	0x3d62ce60	0.055372596
65	0xbcf84c92	-0.03030995
66	0x3ce60c0c	0.028081916
67	0x3cdd2792	0.026996408
68	0x3be587e2	0.007004724
69	0xbce4ecb6	-0.027944904
70	0xbca60bf1	-0.020269366
71	0x3ce1320c	0.027489685
72	0xbe0bf3de	-0.13667247
73	0xbe0364e8	-0.12831461
74	0xbde88309	-0.11353118
75	0xbd713bcb	-0.058894914
76	0xbca56fd7	-0.020194931
77	0xbe058a00	-0.13040924
78	0xbe2021f1	-0.15637948
79	0xbdb75de5	-0.08953456
80	0xbd8886ba	-0.06666322
81	0xbbec29d0	-0.007207133
82	0x3db732cb	0.08945235
83	0x3c8c91d8	0.017159387
84	0x3d89d0bf	0.06729268
85	0x3d8cdda3	0.06878211
86	0x3be8536c	0.007090023
87	0x3c6a0424	0.014283214
88	0x3d6f94b7	0.058491435
89	0x3d9966de	0.074903235
90	0xbc60056d	-0.013673169
91	0x3d734362	0.059390433
92	0xbd0102e8	-0.031496912
93	0xbca9cf79	-0.020728813
94	0xbc5e86b4	-0.01358192
95	0x3c23bfd5	0.009994467
96	0x3d5b4de9	0.053541098
97	0x3d565280	0.052324772
98	0x3c20ce58	0.009814821
99	0x3d9852f7	0.07437699
100	0x3d4122c1	0.047152285
101	0x3d4de8b8	0.050270766
102	0x3c3ffe2f	0.011718317
103	0x3c96510a	0.01834919
104	0x3ccca2e7	0.024980022
105	0x3c8553ae	0.016275253
106	0x3c8d38b7	0.017238958
107	0x3d87d6df	0.0663278
108	0xbcf97545	-0.030451426
109	0x3b11b007	0.0022230165
110	0xbd86087f	-0.06544589
111	0x3c9f659b	0.019457629
112	0xbd241af8	-0.040064782
113	0xbca7b3c2	-0.020471457
114	0x3cdb53b8	0.026773319
115	0xbcbfbdb7	-0.023405893
116	0xbd8d697b	-0.069048844
117	0xbd6d00bd	-0.057862032
118	0xbc5d8489	-0.013520368
119	0xbd4e0a91	-0.050303046
120	0x3ce26102	0.027634148
121	0xbc1a7ef4	-0.009429682
122	0x3d2aff62	0.04174746
123	0xbd925ff9	-0.071472116
124	0xbca99fce	-0.020706084
125	0xbd6bcab1	-0.05756635
126	0x3c4a516c	0.012348514
127	0xbcbcdbf0	-0.023054093
128	0x3d0e9e2c	0.034818813
129	0x3ba27779	0.00495809
130	0xbb0de3c0	-0.0021650642
131	0xbd93cc18	-0.07216662
132	0xbda2dd7d	-0.07952402
133	0x3ba8463e	0.0051353266
134	0xbc77bf4a	-0.01512129
135	0x3d2e584a	0.042564668
136	0x3d627f6c	0.0552973
137	0x3d9c7481	0.07639409
138	0x3d1e391d	0.038628686
139	0x3d72740d	0.059192706
140	0x3c0c55ee	0.008565409
141	0x3c3252b3	0.010883975
142	0x3dda2fa8	0.10653621
143	0x3d1c1dea	0.038114466
144	0xbc381f72	-0.011237966
145	0x3d4c1f8d	0.049834777
146	0xbcd51f3b	-0.026015868
147	0x3cf3a115	0.029739896
148	0xbcf81fde	-0.030288633
149	0x3cc13f15	0.02358965
150	0xbd4581bb	-0.048219424
151	0xbcb208f5	-0.021732787
152	0xbc9c1c88	-0.019056574
153	0xbb8076c3	-0.0039204075
154	0xbdb6cb80	-0.08925533
155	0xbd379fa3	-0.044829976
156	0xbd1c8a2e	-0.038217716
157	0x3c5f3e74	0.01362573
158	0x3c98605c	0.018600635
159	0x3cb5a887	0.022175087
160	0xba70bf3d	-0.000918377
161	0xbcbffcca	-0.023435969
162	0xbdc150f6	-0.0943927
163	0xbc6846fa	-0.014177078
164	0xbcf7fb26	-0.030271124
165	0xbcc924d5	-0.024553696
166	0xbcb5e058	-0.022201702
167	0xbc21c633	-0.0098739145
168	0xbd7885a8	-0.06067434
169	0xbc5bee10	-0.013423458
170	0xbd22cb09	-0.03974441
171	0xbdd54edd	-0.104154326
172	0xbdaeab66	-0.085287854
173	0xbddb56ea	-0.10709937
174	0xbd32e384	-0.043674007
175	0xbdc21e3c	-0.09478423
176	0xbd356b8e	-0.044292025
177	0xbdc23971	-0.09483612
178	0xbd8f8b97	-0.070090465
179	0xbd8bfe98	-0.06835669
180	0xbc40bed2	-0.011764245
181	0x3ce1a996	0.027546685
182	0x3ca5fcdf	0.02026218
183	0x3d244333	0.04010315
184	0xbccc8a64	-0.024968334
185	0xbcb78130	-0.022400469
186	0x3d81c7db	0.063369475
187	0x3c17683c	0.00924116
188	0x3c8b8f99	0.017036246
189	0x3d0d1b11	0.03444964
190	0x3cd4539a	0.02591877
191	0xbc531bad	-0.012885016
192	0x3cbda086	0.023147833
193	0xbc9addc7	-0.01890458
194	0x3d036b02	0.032084472
195	0x3d3e34c4	0.04643704
196	0x3cee8ab4	0.029118873
197	0x3c8213e5	0.015878627
198	0xbd5242e8	-0.051333338
199	0xbd049466	-0.032368086
200	0xbd2e1961	-0.042504672
201	0x38e76922	0.00011034521
202	0xbc88b632	-0.01668844
203	0x3cf416e1	0.029796066
204	0xbd9cea8c	-0.07661924
205	0xbd029a4d	-0.031885434
206	0xbd0fa147	-0.035065915
207	0xbd314132	-0.043275066
208	0xbc464a3f	-0.012102663
209	0xbdbd0af3	-0.09230604
210	0xbda4782b	-0.08030733
211	0xbca7afb3	-0.020469522
212	0xbd317724	-0.043326512
213	0xbcffadc0	-0.03121078
214	0xbcd4905a	-0.025947738
215	0x3cf20c21	0.0295468
216	0xbc8b0e44	-0.016974576
217	0x3d1a9f05	0.03774931
218	0x3d0827fa	0.03324125
219	0x3b72d4a9	0.0037053025
220	0x3cf9a764	0.030475326
221	0xbc3ba230	-0.011452243
222	0x3caccda3	0.021094149
223	0xbb6d1412	-0.0036175293
224	0x3bb986a7	0.0056618038
225	0xbd52f767	-0.051505473
226	0xbd94c41e	-0.07263969
227	0xbdd7c54d	-0.10535679
228	0xbd1d0356	-0.03833326
229	0xbd4e6c60	-0.050396323
230	0xbd6f99cb	-0.058496278
231	0xbd96af84	-0.07357696
232	0xbd5ddae2	-0.05416382
233	0xbde727dc	-0.112868994
234	0xbd079018	-0.033096403
235	0x3c72879e	0.0148028415
236	0xbd60348e	-0.05473762
237	0x3ce6b7a3	0.028163737
238	0x3d2955b8	0.041341513
239	0x3b695323	0.0035602532
240	0xbd83b56f	-0.0643109
241	0xbd275731	-0.040854637
242	0x3c90e3d8	0.01768677
243	0x3c47f4ad	0.012204331
244	0x3d0fa40f	0.035068568
245	0x3d0467f2	0.032325692
246	0xbb7fd276	-0.0039035357
247	0xbc938b9c	-0.018010907
248	0x3d89b870	0.06724632
249	0x3d2d3104	0.042283073
250	0xbd2eb89c	-0.042656526
251	0x3d7228c8	0.059120923
252	0xbd21269b	-0.039343458
253	0xbdb3659a	-0.08759613
254	0xbd5d7cb8	-0.05407402
255	0xbc961252	-0.018319283

layers.conv3_2.bias f4 [32]
0	0x3c549449	0.012974807
1	0x3d14af49	0.036299977
2	0x3d0d9bac	0.03457229
3	0xbd77c692	-0.060492106
4	0xbb079214	-0.0020686435
5	0xbbec490f	-0.0072108577
6	0xbd4f65fc	-0.05063437
7	0xbc1b95eb	-0.009496192
8	0x3d4bc95e	0.049752586
9	0x3cb9a24c	0.022660397
10	0x3d08cd2f	0.033398803
11	0xbd2b4ac2	-0.04181934
12	0xbd477f72	-0.048705526
13	0xbc2be831	-0.01049237
14	0xbd319616	-0.043356024
15	0xbbb8489f	-0.0056238915
16	0xbd171f63	-0.036895167
17	0xbd5bce34	-0.053663447
18	0x3d0d3bf3	0.034481
19	0xbd5d3089	-0.054001365
20	0x3d1cbdb5	0.038266856
21	0x3bbd521c	0.0057776105
22	0x3c971366	0.018441867
23	0x3d0be9b9	0.034158442
24	0x3cc616a8	0.024180725
25	0x3d0b3ddb	0.033994537
26	0x3cdbf81c	0.026851706
27	0x3a041c89	0.00050396525
28	0x3cf613da	0.030038763
29	0xbce9bad6	-0.028531473
30	0x3b28abcd	0.0025737167
31	0xbc8692a0	-0.016427338

layers.conv5_2.weight f4 [32, 32, 5, 5]
0	0x3b21bd88	0.002467962
1	0xbc531b5c	-0.012884941
2	0xbbff185d	-0.0077848868
3	0xbc8269f0	-0.015919656
4	0x3beab13d	0.0071622417
5	0x3d15e18d	0.036592055
6	0xbc6409b9	-0.013918334
7	0x3b589e90	0.0033053495
8	0xbc8e46ec	-0.017367803
9	0x3ca508ce	0.0201458
10	0xbba55dbf	-0.005046576
11	0xbd0080b8	-0.031372756
12	0xbcc9c79c	-0.024631314
13	0xbd0bfd00	-0.034176826
14	0xbc6969ab	-0.014246385
15	0xbc2b6173	-0.010460245
16	0xbcf4b33c	-0.029870622
17	0x3b71be05	0.0036886942
18	0xbb7ebc3f	-0.0038869528
19	0xbcf31833	-0.029674625
20	0xbc149028	-0.009067573
21	0x3c575d35	0.013144781
22	0xbcf37335	-0.02971802
23	0x3b7df640	0.0038751513
24	0xbd1c612d	-0.03817861
25	0x3c293448	0.010327406
26	0x3b175964	0.0023094052
27	0xbd028ace	-0.031870656
28	0x3b05b2ef	0.0020400842
29	0xbc844e72	-0.016150687
30	0xbc513b03	-0.012770417
31	0xbc13fb77	-0.009032122
32	0x3c9f6bab	0.01946052
33	0xbb88237b	-0.00415462
34	0xbcfc3d48	-0.03079094
35	0x3caf5d15	0.02140669
36	0x3c675e53	0.01412161
37	0xbc93ea7e	-0.01805615
38	0xbca0c31d	-0.019624287
39	0xbd428120	-0.047486424
40	0x39eeea17	0.00045569308
41	0xbc48f0d1	-0.012264446
42	0xbd1839b7	-0.037164416
43	0xbbff585b	-0.007792515
44	0xbc9e7dc4	-0.01934708
45	0xbc70c453	-0.014695245
46	0x3b8dcc27	0.0043273154
47	0x3c41391c	0.011793401
48	0xbc9ef929	-0.019405918
49	0xbb7d502d	-0.0038652525
50	0x3c01e5b9	0.007928305
51	0x3d5aa01b	0.053375345
52	0x3d44f9f9	0.048089955
53	0x3d052de3	0.032514464
54	0x3c73c6ec	0.01487897
55	0x3c5295b7	0.012853078
56	0xbc9be903	-0.019032007
57	0xbcca0081	-0.024658443
58	0xbca4bedd	-0.020110542
59	0x3c2da18f	0.010597601
60	0xbd392ac9	-0.04520682
61	0xbd62fdc8	-0.055417806
62	0x3b77ad57	0.0037792528
63	0xbb3bd65d	-0.0028661706
64	0xbd316637	-0.04331037
65	0xbc5b50c2	-0.013385953
66	0xbc13d4fd	-0.009022948
67	0xbd3a70d5	-0.04551776
68	0xbd6e2cae	-0.05814808
69	0xbd14b21c	-0.03630267
70	0xbce0a363	-0.027421659
71	0xbd492553	-0.04910786
72	0xbb614bb9	-0.003437741
73	0xbd0c7801	-0.034294132
74	0xbc936308	-0.017991558
75	0x3c7233d8	0.014782868
76	0xbb1df433	-0.0024101853
77	0x3d2fa56e	0.042882375
78	0x3cfe9141	0.031075122
79	0x3c2cdde8	0.010550953
80	0x3c81d313	0.015847718
81	0xbc1e4a1c	-0.009661224
82	0xbc1d4878	-0.009599797
83	0xbccb245f	-0.024797617
84	0xba9ea4b4	-0.0012103529
85	0xbc9de496	-0.019274037
86	0xbd47b390	-0.04875523
87	0xbc8837ed	-0.01662823
88	0xbd2317c7	-0.039817598
89	0x3c2e0344	0.010620896
90	0x3c734cb2	0.014849829
91	0xbc9edd11	-0.019392522
92	0xbc07f328	-0.008297719
93	0x3ab53891	0.0013826062
94	0x3cd6dd02	0.026228432
95	0x3d238d5b	0.03992973
96	0xbcc39f33	-0.023879623
97	0xbbccd894	-0.006251404
98	0x3cf567ad	0.029956663
99	0xbc31082e	-0.010805173
100	0xbb04afd7	-0.002024641
101	0xbc203f99	-0.009780788
102	0xbcfea154	-0.031082787
103	0xbc38838e	-0.011261834
104	0xbd54dee2	-0.05197037
105	0xbce140a3	-0.027496642
106	0xbd3da19c	-0.0462967
107	0xbc63c5ed	-0.01390217
108	0xbb8746d0	-0.0041283146
109	0xbcca621f	-0.02470499
110	0x3c3fe409	0.011712083
111	0xbcadb60c	-0.02120497
112	0xbbd2442e	-0.006416819
113	0x3afb31bd	0.0019164603
114	0xbd276254	-0.040865257
115	0xbd185201	-0.03718758
116	0xbb32e4f9	-0.0027297123
117	0xbd53d0f3	-0.05171294
118	0xbd060b8a	-0.03272585
119	0xbc88a1c3	-0.016678696
120	0xbcc244b1	-0.023714395
121	0xbba4cf11	-0.005029567
122	0xbd73583f	-0.05941033
123	0xbc4ef4cc	-0.012631606
124	0xbd7e58b5	-0.062096316
125	0x3cd8298c	0.026386999
126	0x3d935b69	0.071951695
127	0x3d954b68	0.07289773
128	0x3cf18835	0.029483894
129	0x3d64f46e	0.05589717
130	0x3c521e91	0.01282467
131	0x3c850b82	0.016240839
132	0x3d3d15f9	0.046163533
133	0x3d6ef1f3	0.05833621
134	0x3d12c1e0	0.035829425
135	0x3c4dc5e6	0.01255939
136	0xbc351e50	-0.01105459
137	0x3d338017	0.043823328
138	0x3c8728b3	0.0164989
139	0x3c8de870	0.017322749
140	0x3d5a3126	0.053269528
141	0xbafa211f	-0.0019083357
142	0x3ba40662	0.0050056437
143	0x3d2cbe89	0.042173896
144	0xbb367ffd	-0.0027847283
145	0x3a84de6a	0.0010137085
146	0x3d04eb53	0.032450985
147	0xbc0ebd7e	-0.008712171
148	0x3d30c413	0.04315574
149	0x3d705417	0.058673944
150	0x3c8dd1e0	0.01731199
151	0x3d0a7556	0.033803307
152	0x3cd6cbef	0.02622029
153	0x3ac01a9b	0.0014656367
154	0x3d2754a2	0.040852197
155	0x3d2b2596	0.04178389
156	0xbae819ff	-0.0017707943
157	0xbc7abdb5	-0.015304019
158	0xbc62ed7b	-0.013850565
159	0xbc4588a8	-0.012056507
160	0xbcbdea25	-0.023182938
161	0x3c036db5	0.008021762
162	0x3b9eb19e	0.004842951
163	0x3c43aadb	0.011942591
164	0xbc1e43f9	-0.009659761
165	0xbcbf2d3f	-0.023337005
166	0xbd062986	-0.032754444
167	0xbd0f72cb	-0.035021584
168	0xbc8cf025	-0.017204354
169	0x3cf96852	0.030445252
170	0xbbac034f	-0.005249418
171	0xbc460865	-0.012086962
172	0xbc798c89	-0.01523126
173	0x3c73f78d	0.014890564
174	0xbc2c0208	-0.010498531
175	0x3d0e4724	0.034735814
176	0x3a911218	0.0011068014
177	0x3cccf437	0.025018794
178	0x3c88f850	0.016719967
179	0x3d058bf1	0.03260416
180	0x3cf9fe97	0.030516906
181	0x3c9f6650	0.019457966
182	0x3c7b6ae4	0.015345309
183	0x3b0a36a8	0.0021089707
184	0x3c664d01	0.014056445
185	0x3cef6c62	0.029226486
186	0x3ac4440e	0.0014973895
187	0xbc07fae6	-0.008299565
188	0x3d05499f	0.032540914
189	0x3ca0f185	0.019646415
190	0xbd0ce961	-0.034402255
191	0x3d062964	0.032754317
192	0x3c97050e	0.018435027
193	0x3cbbe51d	0.022936398
194	0xbc89950d	-0.016794706
195	0xbbc4126e	-0.0059836423
196	0x3c3e315e	0.01160845
197	0x3b5e14ad	0.0033886835
198	0x3c1237df	0.0089244535
199	0x3bfd6d59	0.0077339825
200	0xbd083db6	-0.033261977
201	0x3c29a463	0.010354134
202	0xbc741876	-0.01489841
203	0x3ba79c6b	0.005115082
204	0x3c105a2c	0.008810561
205	0xbd09027f	-0.033449646
206	0xbd282cd8	-0.04105839
207	0xbd472717	-0.048621263
208	0xbbc72219	-0.006077063
209	0xbd4d1429	-0.050068054
210	0xbd20eca4	-0.039288178
211	0xbcdbe84e	-0.02684417
212	0xba4eaada	-0.0007883735
213	0xbc044593	-0.008073228
214	0xbcef647d	-0.029222721
215	0xbd80fada	-0.06297846
216	0xbd16539f	-0.03670084
217	0xbd455edf	-0.04818618
218	0xbd60fa5a	-0.054926254
219	0x3c4c1f01	0.012458564
220	0xbc890e4f	-0.016730456
221	0xbd1c26c0	-0.038122892
222	0xbd37e06c	-0.04489176
223	0xbcb7871a	-0.022403289
224	0xbd3b03e6	-0.045658015
225	0xbc19769e	-0.009366659
226	0xbc8e8709	-0.017398374
227	0x3c0bb95b	0.008528079
228	0xbc1db104	-0.009624723
229	0x3c2d07d9	0.010560953
230	0x3aed8948	0.0018122578
231	0xbc03a391	-0.008034603
232	0x3c9d9784	0.019237287
233	0x3cbb463f	0.022860644
234	0x3bab5873	0.00522905
235	0xbc47f355	-0.012204011
236	0xb9dbd3d5	-0.00041928762
237	0xbc896ff8	-0.016777024
238	0xbc47c521	-0.012192995
239	0x3d14de2b	0.03634469
240	0x3d10fe8a	0.035398997
241	0xbc3d556f	-0.0115560135
242	0x3d17fc45	0.037105817
243	0xbc4f6735	-0.012658884
244	0x3c49aafa	0.01230883
245	0xbc1feb6b	-0.009760718
246	0x3bbe919b	0.0058156974
247	0x3d046b9e	0.032329194
248	0x3c86effe	0.016471859
249	0xbc0adc35	-0.008475353
250	0xbd0f6105	-0.035004634
251	0xbd22b0b9	-0.039719317
252	0xbcc8a627	-0.02449329
253	0xbd801130	-0.06253278
254	0xbd4a4c39	-0.049389098
255	0xbd31cef5	-0.04341026

layers.conv5_2.bias f4 [32]
0	0x3d3e9c05	0.04653551
1	0xbd4159ef	-0.047204908
2	0x3876398a	5.8704558e-05
3	0x3c89fcae	0.01684412
4	0xbc998245	-0.018738875
5	0xbbaeb568	-0.005331684
6	0xbc102d69	-0.008799889
7	0xbaa14b8c	-0.001230584
8	0x3c861ba8	0.01637061
9	0xbd1f729e	-0.038927667
10	0x3c88b73b	0.016688934
11	0xbd0de757	-0.03464445
12	0x3b63d35d	0.0034763434
13	0x3ce92ced	0.028463805
14	0x3ce201ad	0.02758869
15	0x3c1dc263	0.009628865
16	0x3bfe5cc4	0.0077625234
17	0x375c426c	1.3128487e-05
18	0xbc5b73c2	-0.013394298
19	0xbce81130	-0.028328508
20	0x3cef8486	0.029237997
21	0xbc50eaae	-0.0127512645
22	0x3cd7a642	0.026324395
23	0x3c8facbe	0.017538425
24	0xbce9b9e7	-0.028531028
25	0xbd0561eb	-0.032564085
26	0xbc4f472a	-0.012651244
27	0xbcd5c7f0	-0.026096314
28	0xbccc2aad	-0.024922693
29	0x3c1d3ff1	0.009597764
30	0xbcdf4469	-0.0272543
31	0x3c702b8e	0.014658822

layers.bn_2.weight f4 [32]
0	0x3fe66a66	1.800122
1	0x3ff7f507	1.9371651
2	0x3fe8e2b2	1.8194182
3	0x4000c4ed	2.0120194
4	0x4005459f	2.0823743
5	0x3ff60560	1.922039
6	0x40006fd2	2.006825
7	0x3ff773b3	1.9332184
8	0x3fea588d	1.8308274
9	0x40060297	2.093908
10	0x3ff3b333	1.9039062
11	0x3ff44a08	1.9085093
12	0x3ff91d4c	1.9462066
13	0x3ffa1ca7	1.9539994
14	0x40063df3	2.097531
15	0x3fef50ec	1.869657
16	0x3ff049cb	1.877252
17	0x3fe6387b	1.7985986
18	0x400273a3	2.038308
19	0x3ffd2bd7	1.9779004
20	0x40026d53	2.0379226
21	0x40035786	2.052217
22	0x3fdc9d2b	1.7235464
23	0x3ffd83ac	1.9805808
24	0x40039086	2.055696
25	0x3ff83e66	1.9394042
26	0x3fdef47c	1.7418361
27	0x3ff7ab6a	1.9349186
28	0x4000d084	2.0127268
29	0x3fe1ec41	1.7650224
30	0x3fefa365	1.8721739
31	0x3ffab9d1	1.9587957

layers.bn_2.bias f4 [32]
0	0xbdf32642	-0.118725315
1	0x3e4a7723	0.1977201
2	0xbdeac094	-0.114625126
3	0xbd26776d	-0.040641237
4	0x3db2d9ec	0.087329715
5	0x3cefd932	0.029278371
6	0x3e52e2c9	0.20594324
7	0x3e1b78bd	0.15182777
8	0x3e8a587f	0.27020642
9	0xbdfaec80	-0.1225214
10	0x3d9da362	0.076971784
11	0xbdeb2526	-0.11481695
12	0x3dcf62ee	0.10126291
13	0xbd2f9728	-0.042868763
14	0x3dfa8d71	0.12234009
15	0xbcc596f9	-0.024119841
16	0x3dfcf1f8	0.123508394
17	0x3ce06f5d	0.027396852
18	0xbe646122	-0.22302678
19	0xbd9ffe6c	-0.07812199
20	0xbd8ceff8	-0.06881708
21	0xbd1f7974	-0.038934186
22	0xbab6e166	-0.0013952672
23	0xbe1eaee4	-0.15496403
24	0xbbbc07f1	-0.0057382514
25	0x3dc35539	0.09537739
26	0x3e165cd1	0.14683844
27	0x3df9d999	0.121997066
28	0x3d26fef5	0.04077049
29	0xbdc1331b	-0.09433576
30	0xbdcf24bf	-0.10114431
31	0xbe442126	-0.1915327

layers.bn_2.running_mean f4 [32]
0	0x00000000	0.0
1	0x00000000	0.0
2	0x00000000	0.0
3	0x00000000	0.0
4	0x00000000	0.0
5	0x00000000	0.0
6	0x00000000	0.0
7	0x00000000	0.0
8	0x00000000	0.0
9	0x00000000	0.0
10	0x00000000	0.0
11	0x00000000	0.0
12	0x00000000	0.0
13	0x00000000	0.0
14	0x00000000	0.0
15	0x00000000	0.0
16	0x00000000	0.0
17	0x00000000	0.0
18	0x00000000	0.0
19	0x00000000	0.0
20	0x00000000	0.0
21	0x00000000	0.0
22	0x00000000	0.0
23	0x00000000	0.0
24	0x00000000	0.0
25	0x00000000	0.0
26	0x00000000	0.0
27	0x00000000	0.0
28	0x00000000	0.0
29	0x00000000	0.0
30	0x00000000	0.0
31	0x00000000	0.0

layers.bn_2.running_var f4 [32]
0	0x3f800000	1.0
1	0x3f800000	1.0
2	0x3f800000	1.0
3	0x3f800000	1.0
4	0x3f800000	1.0
5	0x3f800000	1.0
6	0x3f800000	1.0
7	0x3f800000	1.0
8	0x3f800000	1.0
9	0x3f800000	1.0
10	0x3f800000	1.0
11	0x3f800000	1.0
12	0x3f800000	1.0
13	0x3f800000	1.0
14	0x3f800000	1.0
15	0x3f800000	1.0
16	0x3f800000	1.0
17	0x3f800000	1.0
18	0x3f800000	1.0
19	0x3f800000	1.0
20	0x3f800000	1.0
21	0x3f800000	1.0
22	0x3f800000	1.0
23	0x3f800000	1.0
24	0x3f800000	1.0
25	0x3f800000	1.0
26	0x3f800000	1.0
27	0x3f800000	1.0
28	0x3f800000	1.0
29	0x3f800000	1.0
30	0x3f800000	1.0
31	0x3f800000	1.0

conv1x1.conv1_3.weight f4 [10, 32, 1, 1]
0	0x3de97fc7	0.11401325
1	0xbc58d63e	-0.013234673
2	0xbd4f7034	-0.050644115
3	0x3bec57ff	0.0072126384
4	0x3e3329d7	0.1749643
5	0xbbb77750	-0.00559894
6	0x3e30cf18	0.172665
7	0x3e169257	0.14704262
8	0xbcc4a053	-0.02400223
9	0x3e619f1b	0.2203335
10	0xbda6f3f2	-0.081519976
11	0x3e4e1428	0.20124876
12	0xbdd1d410	-0.10245526
13	0xbd707f6a	-0.05871526
14	0xbdbb2c77	-0.0913934
15	0x3d00bfa6	0.03143277
16	0x3e0a687c	0.1351642
17	0x3dd6f641	0.10496188
18	0xbdd3891c	-0.10328886
19	0x3da082f3	0.078374766
20	0x3d1b0ff7	0.037857022
21	0xbe1ca26b	-0.15296333
22	0xbbb56463	-0.0055356487
23	0x3d9226b7	0.071362905
24	0xbd83ab52	-0.06429161
25	0x3b5387e1	0.0032277035
26	0x3e45bee9	0.19311108
27	0xbe00371b	-0.12521021
28	0x3b123301	0.0022308233
29	0xbd339af9	-0.043848965
30	0xbe22fbc4	-0.15916353
31	0xbdccaa40	-0.0999341
32	0xbe02bd58	-0.12767541
33	0xbd8b0f92	-0.06790079
34	0xbe0c05d1	-0.13674094
35	0xbdbc1128	-0.0918296
36	0x3d57f66d	0.052725244
37	0x3da34f7e	0.07974146
38	0xbd896d2f	-0.06710278
39	0x3de61614	0.1123468
40	0xbe1c4450	-0.15260434
41	0xbb994e04	-0.0046784896
42	0x3d03d2fd	0.032183636
43	0x3e1d76cd	0.1537735
44	0xbdead598	-0.11466521
45	0xbd3b1c83	-0.045681488
46	0xbe0e733c	-0.13911146
47	0xbddb1fa2	-0.10699393
48	0x3ca6e4ea	0.020372827
49	0xbcde5ed9	-0.027144836
50	0xbe1a5963	-0.15073161
51	0xbc0cf62d	-0.008603615
52	0x3d58281e	0.052772634
53	0x3ca2745d	0.019830877
54	0xbc912b07	-0.017720712
55	0x3cbd0ced	0.023077453
56	0xbc900e64	-0.017584987
57	0x3daaff4b	0.083494745
58	0x3e3c6b19	0.1840023
59	0xbe177017	-0.14788853
60	0xbe2ac62c	-0.16677159
61	0xbe1f125d	-0.15534349
62	0xbd68efa0	-0.05686915
63	0x3e11d4e8	0.14241374
64	0x3e3257b2	0.17416266
65	0x3e15ac41	0.14616491
66	0x3d0d23da	0.03445802
67	0xbe491fa9	-0.19640984
68	0x3cad2847	0.02113737
69	0xbd78beb0	-0.06072873
70	0xbe2a2c6c	-0.16618508
71	0xbd04051d	-0.03223144
72	0x3dd130f4	0.10214415
73	0x3c9d97d5	0.019237438
74	0xbe00e2a6	-0.1258646
75	0x3d43230b	0.04764084
76	0x3dd30776	0.103041574
77	0xbe0019b6	-0.12509808
78	0x3d86352a	0.06553109
79	0xbd09891f	-0.033578034
80	0xbc0b17eb	-0.008489589
81	0xbe0d5866	-0.13803253
82	0x3e358e89	0.17730154
83	0x3db58d24	0.08864811
84	0x3d9b13fb	0.0757217
85	0x3d8a4500	0.06751442
86	0x3e2bd466	0.16780242
87	0xbdc693a5	-0.0969613
88	0x39aa601d	0.00032496537
89	0x3e22f6d2	0.15914467
90	0xbdbebf46	-0.09313826
91	0xbdd99fa6	-0.10626154
92	0x3cf17bb0	0.029477924
93	0xbe196105	-0.14978416
94	0x3db5b7f6	0.088729784
95	0x3c79f086	0.015255099
96	0xbde530fc	-0.11190984
97	0x3dc48356	0.09595363
98	0xbdc88914	-0.097917706
99	0x3c3183cc	0.0108346455
100	0x3d21574a	0.039389886
101	0x3a0e2d0c	0.00054235826
102	0x3c666e62	0.014064403
103	0xbe008fca	-0.12554851
104	0xbdd1290c	-0.10212907
105	0xbcfaffe4	-0.030639596
106	0x3cb87e31	0.02252111
107	0x3e02201d	0.12707563
108	0x3d5a4782	0.05329085
109	0x3e0fab37	0.14030157
110	0xbd97e4c9	-0.07416684
111	0x3be22fb0	0.0069026574
112	0x3dd2e2f5	0.10297195
113	0x3d382020	0.04495251
114	0x3d79cdae	0.060987167
115	0x3df6a03a	0.120422795
116	0x3e0921ec	0.13391846
117	0x3e2c2188	0.16809666
118	0x3e03d52f	0.12874292
119	0xbd8c8c34	-0.06862679
120	0xbb330481	-0.0027315917
121	0xbda6e078	-0.08148283
122	0x3cbd321c	0.023095183
123	0x3db79f32	0.08965911
124	0x3e200776	0.15627846
125	0xbe499c8f	-0.19688629
126	0xbe4a1085	-0.19732864
127	0x3e1a53ba	0.15071002
128	0xbdbfc35f	-0.09363436
129	0x3caba1d2	0.020951185
130	0xbe575183	-0.21027188
131	0xbdc571ce	-0.09640847
132	0xb9a0e390	-0.00030687125
133	0xbe0530e5	-0.13006933
134	0x3dbc3ffd	0.09191892
135	0xbd9c05c0	-0.07618284
136	0x3e347848	0.17624009
137	0x3e090a2f	0.13382791
138	0xbdbf1fbd	-0.093322255
139	0xbe3018e8	-0.17197001
140	0xbdd6df95	-0.10491864
141	0xbda5d042	-0.08096363
142	0x3e534c70	0.20634627
143	0xbe400f73	-0.18755893
144	0x3d259756	0.04042753
145	0x3d9f9dd4	0.07793775
146	0xbda46e03	-0.080287956
147	0x3e0c2ac5	0.1368819
148	0xbd69b852	-0.057060547
149	0xbd3f3dbb	-0.04668973
150	0xbdca7a69	-0.09886629
151	0x3e5f29cc	0.21793288
152	0x3e277db3	0.16356544
153	0x3e313b16	0.17307696
154	0x3cf1e380	0.029527426
155	0xbdf169f0	-0.11787784
156	0x3c50de56	0.0127483215
157	0x3d4ad721	0.04952157
158	0xbdb53c1b	-0.08849355
159	0x3bdd915f	0.0067617144
160	0xbb074b19	-0.0020644127
161	0x3dbad2e4	0.091222554
162	0xbe7c3d27	-0.24632703
163	0xbe0b2abb	-0.13590519
164	0xbdeafddd	-0.11474202
165	0xbe13ea0f	-0.14444755
166	0x3c7cbca1	0.015425832
167	0x3da80996	0.08204953
168	0xbdac4bc6	-0.0841289
169	0x3dfdaadb	0.12386104
170	0x3c05e9ad	0.008173388
171	0x3cc228cb	0.023701092
172	0xbe08506b	-0.13311927
173	0xbe1f7890	-0.15573335
174	0x3e35d0f0	0.17755485
175	0x3d49850d	0.049199153
176	0xbdfc6c07	-0.12325292
177	0xbe545b64	-0.20737988
178	0xbdef49d4	-0.116840035
179	0x3e1318cc	0.14364928
180	0xbdb2fd62	-0.08739735
181	0x3da8e5cb	0.082469545
182	0xbe0394b3	-0.12849693
183	0xbb73f07d	-0.00372222
184	0x3d9ad9ca	0.07561071
185	0x3d4de66d	0.05026858
186	0x3d4c6aff	0.049906727
187	0x3d287b73	0.041133355
188	0x3e5780a3	0.21045165
189	0x3da884fb	0.08228489
190	0xbe2fea56	-0.17179236
191	0xbd40e53f	-0.047093626
192	0xbcac06f9	-0.020999419
193	0xbd3c4993	-0.045968603
194	0xbe1d9c54	-0.15391666
195	0xbe2d47e4	-0.16921955
196	0x3dfde2f3	0.12396803
197	0x3de138b4	0.109971434
198	0xbda9c9a2	-0.082904115
199	0xbcd29d79	-0.025709854
200	0x3dd0cdea	0.10195525
201	0x3deb8ea3	0.11501815
202	0x3dc6435c	0.096808165
203	0xbc9e4b85	-0.01932312
204	0x3e29d9e5	0.16587026
205	0x3d087abb	0.03332017
206	0x3c928394	0.017885007
207	0xbe3f4863	-0.18679957
208	0x3ca01667	0.019541932
209	0x3e405b84	0.1878491
210	0xbd7aad02	-0.06120015
211	0x3e24d4ee	0.16096851
212	0x3e43968e	0.19100401
213	0x3e1e092c	0.15433186
214	0x3d08648e	0.03329902
215	0xbe01021e	-0.12598464
216	0x3dec5138	0.11538929
217	0xbcd7cec4	-0.02634371
218	0xbe065766	-0.13119277
219	0xbcbb07c2	-0.022830848
220	0x3b9f5949	0.0048629385
221	0x3d823780	0.06358242
222	0x3c9627fc	0.018329613
223	0x3e60695a	0.21915188
224	0xbc7183fc	-0.01474094
225	0x3dfbd994	0.12297359
226	0x3e21a39c	0.15785068
227	0x3e429aae	0.19004318
228	0xbda01d88	-0.07818133
229	0x3e1e6bae	0.15470764
230	0xbe09bde5	-0.13451345
231	0xbd8006f6	-0.06251328
232	0x3dbfdbeb	0.09368118
233	0x3e03e660	0.1288085
234	0xbd0f616a	-0.03500501
235	0xbc1d71d4	-0.009609658
236	0x3dd6535c	0.10465118
237	0xbdf241d7	-0.11828964
238	0xbe25b5d2	-0.1618264
239	0xbdc2c9fa	-0.0951118
240	0x3e36ea22	0.17862752
241	0x3df2d64c	0.1185728
242	0xbc86e6d3	-0.016467487
243	0xbe4642b7	-0.19361387
244	0x3d5526f2	0.052039094
245	0xbd7a68d8	-0.061135143
246	0x3d86e9e1	0.065875776
247	0x3d1dd345	0.03853156
248	0xbd1357ff	-0.03597259
249	0x3dbef6e9	0.09324438
250	0xbe1eff36	-0.15527043
251	0xbd3b2c08	-0.04569629
252	0xbe49887d	-0.19680972
253	0x3ca480fb	0.020081034
254	0xbdec7920	-0.1154654
255	0x3d6aa662	0.05728758

conv1x1.conv1_3.bias f4 [10]
0	0xbc9dac74	-0.019247271
1	0x3c323007	0.010875708
2	0xbb3c4d87	-0.0028732733
3	0xbdc7b409	-0.09751136
4	0x3dc8c4ec	0.09803185
5	0xbd6c021e	-0.057619207
6	0xbd0ed979	-0.034875367
7	0x3d377969	0.04479352
8	0xbdb55744	-0.08854535
9	0xbb488e3c	-0.0030602356
