fp/Enas on CNN with Pytorch/weights.pth (torch, 968096 bytes, 92 tensors)

layers.conv3_1.weight f4 [32, 3, 3, 3]
-0.14428006 0.05845708 -0.25962442 -0.13778591 0.10914424 -0.002891895 0.29973003 -0.11772908
-0.076252416 -0.11093467 0.103685744 -0.579493 -0.056399886 0.242898 0.19892012 -0.049603518
0.47144833 0.18236953 0.12559956 0.34092972 -0.2274105 -0.06549935 0.12766476 -0.33088663
0.024868296 0.47379962 0.4455796 -0.14841694 0.037675034 -0.06497557 -0.006471016 0.0016668418
0.03775127 0.15752374 0.26690534 0.25431323 0.13038504 -0.40157276 0.16542676 -0.08729712
-0.3409285 -0.59674567 -0.30019978 0.19559567 0.2788978 0.11768179 0.3787257 -0.08803435
0.37867254 0.1832672 -0.29069138 0.010616681 0.17754698 0.2941113 0.08533489 0.21366845
0.12987159 -0.32559422 -0.18842213 -0.32003656 -0.21074009 -0.14862132 0.22624445 0.10291599
-0.32108772 -0.06422671 0.23833473 0.22919571 -0.02315722 0.32912743 0.18358496 -0.15779163
-0.11894044 0.05328564 0.043919954 -0.15947576 0.21720524 0.2261917 0.51459974 0.5263404
-0.14326388 -0.45222974 0.13872054 0.10201367 -0.30085734 -0.052695688 0.085182734 -0.28816015
-0.073793225 -0.027805325 0.036340926 0.41122407 0.00071297097 0.111551896 -0.35817218 0.16192819
0.112727605 -0.0392091 0.22785245 -0.05934073 0.18817542 -0.24516368 0.7131704 0.07089431
0.29390296 -0.11392053 -0.2602009 0.6890821 -0.50731194 -0.51674527 0.09530495 -0.05724691
0.2014472 -0.114654355 0.101411104 -0.2773222 0.038075067 0.13293621 0.20280765 -0.1433281
-0.26788685 0.0595047 0.13298313 0.27330747 -0.33240807 -0.114083245 0.2686558 0.008418579
-0.17601755 0.23601279 0.020634027 0.1548209 -0.021873541 -0.4699772 0.036780074 0.11366127
0.032816093 -0.01516513 0.17822854 0.108523436 -0.10360182 0.104616545 -0.19857654 4.1247375e-05
-0.3146819 0.0011818965 -0.24278736 0.21142566 -0.5141525 0.13282473 0.021504404 -0.14006443
-0.18580994 0.12445506 -0.21002497 -0.122658744 -0.33792222 -0.28113094 0.5816343 -0.086637415
0.57118607 0.08198269 -0.065983064 -0.0035748214 0.33523425 -0.045644946 0.10808772 0.1415642
0.28860348 0.18786697 -0.3701971 0.084871836 -0.15590262 0.057613365 0.22680342 0.25443628
-0.13696083 -0.056535847 0.29507443 0.19349284 0.5334334 -0.22900432 0.06765003 0.37778598
0.40350148 0.07809748 -0.31259683 0.15484555 0.19153665 -0.14696303 0.044396885 -0.15833354
0.30778253 -0.047857035 -0.0989171 0.35184214 0.50451344 -0.14813136 -0.3252007 0.16286178
-0.27591786 -0.49728313 -0.314532 0.026053727 0.42784745 0.059024643 -0.4316166 -0.25279498
-0.23875237 0.05657411 -0.2397387 0.35671946 0.17950438 0.08849576 -0.36281216 0.21186447
0.01140029 0.0266128 0.08669427 -0.10895856 -0.3142625 -0.5702905 0.1865259 0.12311398
0.008831462 -0.115355745 0.34211013 -0.16262706 0.36911783 -0.08373602 0.14714599 -0.03030456
-0.18491317 0.2658551 -0.14645009 -0.08922477 -0.47494873 -0.050815 0.035840772 0.01535516
-0.10292938 -0.3238658 0.43007135 -0.25849012 0.008935938 -0.0077839 0.32109907 0.43293485
0.5497237 0.123912185 0.04102015 -0.19884038 0.06927451 0.0124449665 -0.06668738 -0.0016227523
00000000: 27be 13be b170 6f3d 7eed 84be c017 0dbe
00000010: 0487 df3d f285 3dbb 3776 993e f21b f1bd
00000020: 3a2a 9cbd b731 e3bd 3159 d43d a759 14bf
00000030: 9103 67bd 41ba 783e b7b1 4b3e 0f2d 4bbd
00000040: ad61 f13e 14bf 3a3e 2c9d 003e 578e ae3e
00000050: 4cde 68be 8624 86bd 8dba 023e f969 a9be
00000060: 99b8 cb3c dd95 f23e 0223 e43e 9cfa 17be
00000070: 2351 1a3d e911 85bd d10a d4bb ee79 da3a
00000080: 13a1 1a3d e74d 213e d1a7 883e 5835 823e
00000090: a883 053e f29a cdbe a265 293e d5c8 b2bd
000000a0: 2e8e aebe 53c4 18bf c9b3 99be 3b4a 483e
000000b0: b1cb 8e3e 2603 f13d 56e8 c13e 5a4b b4bd
000000c0: 5ee1 c13e 66aa 3b3e 80d5 94be 96f1 2d3c
000000d0: e0ce 353e c295 963e 0fc4 ae3d e7cb 5a3e
000000e0: 0ffd 043e 49b4 a6be bbf1 40be d5db a3be
000000f0: 40cc 57be 3030 18be a0ac 673e 9ec5 d23d
00000100: 9c65 a4be 4b89 83bd 050e 743e 48b2 6a3e
00000110: 36b4 bdbc 6483 a83e b2fd 3b3e 2194 21be
00000120: 0c97 f3bd 0b42 5a3d 69e5 333d 9d4d 23be
00000130: 0d6b 5e3e cc9e 673e cfbc 033f 3fbe 063f
00000140: c4b3 12be a88a e7be c20c 0e3e 8bec d03d
00000150: f909 9abe 6fd7 57bd 4974 ae3d ba89 93be
00000160: e720 97bd fec7 e3bc 39da 143d f68b d23e
00000170: ace6 3a3a 5275 e43d 5862 b7be 81d0 253e
00000180: bbdd e63d b999 20bd 2752 693e 440f 73bd
00000190: 0fb1 403e 300c 7bbe 5692 363f 0931 913d
000001a0: 737a 963e 2b4f e9bd 0d39 85be af67 303f
000001b0: 32df 01bf 6b49 04bf 3e2f c33d bc7b 6abd
000001c0: 2d48 4e3e e7cf eabd a0b0 cf3d 2dfd 8dbe
000001d0: 9af4 1b3d 6e20 083e cfac 4f3e 9ac4 12be
000001e0: 7728 89be 33bb 733d bb2c 083e f5ee 8b3e
000001f0: 6431 aabe 7aa4 e9bd 418d 893e 14ee 093c
00000200: f23d 34be 56ad 713e b108 a93c 5f89 1e3e
00000210: 2430 b3bc daa0 f0be b4a6 163d 3dc7 e83d
00000220: 2b6a 063d 2a77 78bc 8b81 363e 8941 de3d
00000230: 312d d4bd 3341 d63d a657 4bbe 0801 2d38
00000240: fc1d a1be dee9 9a3a 409d 78be f87f 583e
00000250: 809f 03bf 3503 083e 012a b03c 0d6d 0fbe
00000260: f644 3ebe 4be2 fe3d c910 57be 8234 fbbd
00000270: 2404 adbe 65f0 8fbe fce5 143f f56e b1bd
00000280: 4039 123f 8ae6 a73d 2122 87bd 8d47 6abb
00000290: d3a3 ab3e 32f6 3abd 185d dd3d 35f6 103e
000002a0: d6c3 933e 3360 403e 798a bdbe 49d1 ad3d
000002b0: f0a4 1fbe fefb 6b3d 283f 683e 7945 823e
000002c0: 763f 0cbe 2292 67bd ff13 973e fd22 463e
000002d0: 178f 083f 1c80 6abe 198c 8a3d 2a6d c13e
000002e0: bf97 ce3e 92f1 9f3d b10c a0be d58f 1e3e
000002f0: 2f22 443e 7a7d 16be 82d9 353d 3022 22be
00000300: ac95 9d3e bd05 44bd 0c95 cabd a724 b43e
00000310: cb27 013f bfaf 17be b580 a6be 3dc5 263e
00000320: 1b45 8dbe e59b febe 570a a1be a06e d53c
00000330: d20e db3e d3c3 713d dafc dcbe 586e 81be
00000340: 807b 74be 41ba 673d 107e 75be efa3 b63e
00000350: ffcf 373e 443d b53d 84c2 b9be 00f3 583e
00000360: 48c8 3a3c 1603 da3c c48c b13d aa25 dfbd
00000370: 04e7 a0be 8ffe 11bf a500 3f3e 2f23 fc3d
00000380: d6b1 103c a23f ecbd 0f29 af3e b587 26be
00000390: 03fd bc3e ca7d abbd 70ad 163e 4541 f8bc
000003a0: e159 3dbe 291e 883e 03f7 15be 7abb b6bd
000003b0: 7b2c f3be 6423 50bd c6cd 123d 3694 7b3c
000003c0: a4cc d2bd bdd1 a5be 5032 dc3e d158 84be
000003d0: 0a68 123c 1610 ffbb 1967 a43e a3a9 dd3e
000003e0: b1ba 0c3f acc5 fd3d bf04 283d d09c 4bbe
000003f0: cbdf 8d3d f9e5 4b3c 6593 88bd 88b2 d4ba

layers.conv3_1.bias f4 [32]
0.07858337 0.032232344 0.14741154 -0.13786045 0.08437703 0.078244336 0.117502086 0.09797074
0.017843932 0.14229678 0.1538777 -0.040742964 0.1464217 -0.1765244 0.13625984 0.031673733
0.14626367 0.06693348 -0.09526924 -0.06286279 -0.011556882 -0.04954237 -0.107176125 0.053840343
0.06634183 -0.13049538 0.12703435 0.0699222 -0.15458222 -0.04802647 -0.17008826 -0.057013612
00000000: 51f0 a03d 1006 043d 0df3 163e 4a2b 0dbe
00000010: ddcd ac3d 913e a03d efa4 f03d e2a4 c83d
00000020: 702d 923c 3fb6 113e 1e92 1d3e 18e2 26bd
00000030: 92ef 153e d0c2 34be b387 0b3e 51bc 013d
00000040: 25c6 153e 6c14 893d 851c c3bd 35be 80bd
00000050: 1459 3dbc f1ec 4abd 287f dbbd b187 5c3d
00000060: 3ade 873d 95a0 05be 4b15 023e 5f33 8f3d
00000070: cd4a 1ebe 67b7 44bd 9e2b 2ebe 1b87 69bd

layers.conv5_1.weight f4 [32, 3, 5, 5]
0.090534426 0.02079814 0.13199824 0.29655856 -0.1129632 0.060378637 -0.161837 -0.00022314163
0.13092226 -0.2289991 -0.22637345 -0.20384751 0.101399705 0.08670752 -0.4614163 -0.0684306
0.3345449 1.0787965 0.7926394 -0.19053079 -0.2329964 -0.4286744 -0.23078153 -0.06590484
-0.59757864 -0.12114805 -0.2817502 -0.26713735 -0.28516167 -0.025837708 -0.04271113 -0.05974906
-0.13935044 -0.27206093 0.030037023 -0.02292543 0.12621275 0.17477377 -0.2187683 0.020144794
-0.13246043 0.2763083 0.6289048 0.07784646 -0.110703036 0.16507769 -0.13703182 -0.26678008
-0.11003861 -0.031791504 0.1984517 -0.046357334 0.21383938 0.10268209 0.14398637 0.06658519
0.073324494 0.47005105 0.098954126 0.13590029 0.014191832 0.025303658 0.31624174 -0.12917931
0.3190556 0.36018786 0.010645387 -0.14179833 -0.0913705 0.41223985 0.07529133 -0.8052167
-1.1609988 -0.57551354 0.23496082 0.16262405 -0.020971358 -0.07766642 -0.044273663 -0.08259613
0.3336804 0.16536175 -0.08218255 -0.15996729 -0.35183415 0.27792802 0.14241421 0.14126796
-0.21515799 -0.22679044 0.2793099 0.08632055 0.03638039 -0.18535969 -0.3400015 0.45542806
0.16161205 -0.1331325 -0.023559948 -0.51974404 0.0027290522 -0.15850087 0.0782078 0.01595327
0.22532913 -0.22247978 -0.1265795 0.16060178 0.034506418 0.22069602 -0.5447313 -0.20843051
0.061564583 -0.0726141 0.44838342 -0.21722554 0.031455677 0.08126043 0.014232761 0.21602191
0.17975341 0.07277238 0.03757744 -0.020586742 -0.13304214 -0.12674719 -0.06127222 -0.038132455
-0.042563863 -0.14257495 -0.6664742 -0.07069354 0.032240663 0.18906853 0.56399864 -1.2880129
-0.24875379 -0.08895102 0.22291441 1.5668867 -1.2045705 -0.10620311 -0.13755378 0.173273
1.2532635 -0.60513055 -0.16548134 -0.15422653 -0.035692334 0.6838286 0.109394945 0.038469147
-0.040666394 -0.23108438 0.13725819 0.63307387 0.35198802 -0.8362177 -0.8700323 1.0173858
0.23998137 0.2996101 -0.6197627 -0.5867845 0.70340204 -0.55689263 -0.5690185 0.68794703
0.39892676 -0.55719167 -0.49815068 -0.31079748 0.7465736 0.81512254 -0.8120884 -0.18024395
-0.09919647 0.41753408 0.37656388 -0.32384083 -0.423529 -0.24820426 0.3351841 0.094774924
-0.3815142 -0.27554753 0.22956352 0.1880057 -0.033584084 -0.09454972 0.19064312 0.04872061
-0.06984925 -0.3296229 0.06414663 0.85270983 0.3916893 0.07085527 -0.5644744 -0.27413744
0.4105995 -0.007638445 -0.5156918 -0.16909248 0.61900526 0.16154175 0.013456337 -0.43171814
-0.42017874 0.2683598 -0.035777725 0.17865933 -0.08635181 -0.2107641 0.100034155 -0.17070472
0.009972949 0.17627494 -0.10380715 -0.12553051 -0.32232827 -0.13181143 0.14563014 0.16028535
-0.23346262 -0.16292307 0.079816446 -0.14779568 0.047974132 -0.111420825 -0.21014988 0.09934612
-0.05587054 0.008873478 -0.18145236 -0.29875118 -0.15827458 -0.03747913 0.07925914 -0.14549029
-0.12648992 -0.048384976 -0.30930758 0.219111 -0.21258284 -0.14391518 0.041862074 -0.10848906
0.16041288 0.032842793 0.2808499 0.5673331 -0.015120048 -0.057017885 -0.17933023 -0.031284794
00000000: 1d6a b93d dc60 aa3c 8c2a 073e 86d6 973e
00000010: 4059 e7bd 974f 773d 99b8 25be 20fb 69b9
00000020: 7c10 063e bd7e 6abe 71ce 67be 67bd 50be
00000030: a6aa cf3d b693 b13d c23e ecbe 5825 8cbd
00000040: 7849 ab3e 0116 8a3f 6aea 4a3f 811a 43be
00000050: 9c96 6ebe 367b dbbe fe51 6cbe 1ef9 86bd
00000060: eafa 18bf 781c f8bd 9041 90be 3ac6 88be
00000070: b600 92be 9aa9 d3bc def1 2ebd 6ebb 74bd
00000080: e2b1 0ebe 924b 8bbe 3410 f63c 1dce bbbc
00000090: ea3d 013e e5f7 323e cc04 60be b206 a53c
000000a0: b5a3 07be 4878 8d3e e8ff 203f f76d 9f3d
000000b0: 46b8 e2bd 200a 293e 1252 0cbe 6697 88be
000000c0: ec5b e1bd cf37 02bd ec36 4b3e 30e1 3dbd
000000d0: b6f8 5a3e fd4a d23d 2a71 133e d15d 883d
000000e0: 272b 963d 88aa f03e 76a8 ca3d 7229 0b3e
000000f0: dc84 683c 9e49 cf3c 70ea a13e 9547 04be
00000100: 415b a33e 8b6a b83e fd69 2e3c 9533 11be
00000110: 7520 bbbd 1a11 d33e 5732 9a3d af22 4ebf
00000120: 9c9b 94bf db54 13bf 9299 703e eb86 263e
00000130: 20cc abbc 920f 9fbd 4d58 35bd 2928 a9bd
00000140: 28d8 aa3e 9754 293e 534f a8bd 77ce 23be
00000150: 9b23 b4be 954c 8e3e 08d5 113e 8ca8 103e
00000160: 6052 5cbe c13b 68be b501 8f3e d4c8 b03d
00000170: 9b03 153d eece 3dbe ad14 aebe de2d e93e
00000180: a17d 253e e353 08be cb00 c1bc f20d 05bf
00000190: e6d9 323b 0d4e 22be 692b a03d 6fb0 823c
000001a0: aebc 663e bdd1 63be 0e9e 01be cb74 243e
000001b0: 9a56 0d3d 23fe 613e 8373 0bbf cf6e 55be
000001c0: 252b 7c3d b4b6 94bd 8392 e53e 5f70 5ebe
000001d0: abd7 003d de6b a63d 8730 693c d934 5d3e
000001e0: 4711 383e b009 953d cdea 193d 87a5 a8bc
000001f0: 333c 08be 04ca 01be 94f8 7abd c730 1cbd
00000200: 7257 2ebd 2bff 11be 0e9e 2abf c6c7 90bd
00000210: c90e 043d 2e9b 413e 3762 103f 9bdd a4bf
00000220: 50b9 7ebe f42b b6bd ad43 643e be8f c83f
00000230: 5e2f 9abf 0481 d9bd e6da 0cbe 7a6e 313e
00000240: f06a a03f d6e9 1abf f173 29be 8fed 1dbe
00000250: 2032 12bd 640f 2f3f 750a e03d d391 1d3d
00000260: ce91 26bd 62a1 6cbe 698d 0c3e 2111 223f
00000270: c637 b43e 5d12 56bf 70ba 5ebf b339 823f
00000280: adbd 753e 7f66 993e c5a8 1ebf 8237 16bf
00000290: 2812 343f 8490 0ebf 32ab 11bf 4c1d 303f
000002a0: 2140 cc3e 1da4 0ebf 9b0d ffbe d920 9fbe
000002b0: 731f 3f3f dfab 503f 06e5 4fbf df91 38be
000002c0: 8527 cbbd 07c7 d53e fbcc c03e 77ce a5be
000002d0: cbd8 d8be 4229 7ebe 409d ab3e 5b19 c23d
000002e0: d455 c3be 9114 8dbe b312 6b3e 9184 403e
000002f0: 778f 09bd 49a3 c1bd f337 433e 438f 473d
00000300: 200d 8fbd 55c4 a8be 4f5f 833d 314b 5a3f
00000310: 808b c83e 911c 913d 6581 10bf be5b 8cbe
00000320: 193a d23e ec4b fabb 6104 04bf 9426 2dbe
00000330: 2177 1e3f 336b 253e f877 5c3c 290a ddbe
00000340: ab21 d7be 7566 893e aa8b 12bd 79f2 363e
00000350: 38d9 b0bd 8bd2 57be b5de cc3d 38cd 2ebe
00000360: 9465 233c 6b81 343e d898 d4bd 128b 00be
00000370: 3608 a5be 93f9 06be 1120 153e d821 243e
00000380: d310 6fbe 4ed5 26be ce76 a33d c057 17be
00000390: 8680 443d 9a30 e4bd 8831 57be fb75 cb3d
000003a0: 82d8 64bd 1062 113c a6ce 39be eaf5 98be
000003b0: bb12 22be b783 19bd 9e52 a23d 68fb 14be
000003c0: 9386 01be 532f 46bd 905d 9ebe a25e 603e
000003d0: 51af 59be 805e 13be 9177 2b3d 832f debd
000003e0: 4643 243e 2a86 063d 8fcb 8f3e be3c 113f
000003f0: 14ba 77bc 968b 69bd 58a2 37be 7c24 00bd

layers.conv5_1.bias f4 [32]
8.343688e-06 -1.6069298e-05 1.959178e-06 8.112394e-06 2.0246e-05 -3.707879e-06 1.441896e-05 1.6897124e-05
1.2977046e-05 3.945169e-06 -1.4245917e-05 1.1631623e-05 1.45175545e-05 -3.0466404e-06 -8.719039e-06 -2.809039e-06
1.684149e-05 -5.2685696e-06 -1.328246e-05 1.3286615e-05 8.548871e-06 -1.961717e-05 -2.1070482e-05 1.6825703e-05
-3.951253e-06 -1.5062154e-05 -9.036576e-06 -3.534532e-06 1.7482349e-05 -1.7343586e-05 -1.8740056e-05 -1.7091006e-05
00000000: defb 0b37 8ecc 86b7 6c7a 0336 781a 0837
00000010: f4d5 a937 e0d4 78b6 f6e8 7137 4cbe 8d37
00000020: fdb7 5937 be60 8436 bf01 6fb7 7125 4337
00000030: 6c90 7337 e274 4cb6 fd47 12b7 ec82 3cb6
00000040: d346 8d37 abc8 b0b6 bbd7 5eb7 94e9 5e37
00000050: 1f6d 0f37 8d8f a4b7 84c0 b0b7 ec24 8d37
00000060: 0195 84b6 75b3 7cb7 cc9b 17b7 cc32 6db6
00000070: 0fa7 9237 117d 91b7 f733 9db7 a85e 8fb7

layers.bn_1.weight f4 [32]
0.7372188 0.6949762 0.74537545 0.6137303 0.55671424 0.5699962 1.2098439 0.7278391
0.12777923 0.4561651 0.69390243 0.62386024 0.32543093 0.9250728 0.5734262 0.8792177
0.37103137 0.88392776 0.6923241 0.99653345 0.45399553 1.0308083 0.77648926 0.6875082
0.7592059 0.6231263 0.5949643 0.6900586 0.61224645 0.7910658 0.66498137 0.43412557
00000000: 5fba 3c3f f6e9 313f edd0 3e3f 6e1d 1d3f
00000010: d384 0e3f 45eb 113f 2adc 9a3f aa53 3a3f
00000020: 8fd8 023e 798e e93e 97a3 313f 4eb5 1f3f
00000030: e29e a63e 92d1 6c3f 0fcc 123f 6914 613f
00000040: d3f7 bd3e 1749 623f 273c 313f d11c 7f3f
00000050: 1a72 e83e 87f1 833f 00c8 463f 8a00 303f
00000060: 515b 423f 3585 1f3f 954f 183f aea7 303f
00000070: 2fbc 1c3f 4a83 4a3f 383c 2a3f b545 de3e

layers.bn_1.bias f4 [32]
-0.7219247 -0.059778158 -0.5207823 -0.495652 -0.26735866 -0.011830122 -0.04647911 -0.36390465
2.3526154 -0.095084615 -0.32921046 -0.13566844 -0.02472554 -0.2104947 -0.19378467 -0.2122712
0.031336762 -0.37827834 -0.84068537 -0.9693789 0.007306755 -0.24671797 -0.3448665 -0.44728965
-0.25856945 -0.26674554 -0.1610195 -0.34379068 -0.4957126 -0.35555917 -0.20047593 -0.13105586
00000000: 0fd0 38bf f1d9 74bd fd51 05bf 19c6 fdbe
00000010: 3ce3 88be 21d3 41bc e160 3ebd b651 babe
00000020: 4091 1640 b9bb c2bd 468e a8be abec 0abe
00000030: 378d cabc ec8b 57be 7d6f 46be 9f5d 59be
00000040: fa5a 003d b3ad c1be 2837 57bf 3729 78bf
00000050: 816d ef3b a3a3 7cbe 5892 b0be 2603 e5be
00000060: 3763 84be df92 88be 4ce2 24be 5505 b0be
00000070: 0bce fdbe da0b b6be 9049 4dbe 8233 06be

layers.bn_1.running_mean f4 [32]
-0.20312788 -0.15853257 -0.3821065 -0.18017244 -0.5923828 -0.36425197 -0.043807812 -0.24759072
0.24984494 -0.31063616 0.11276265 -0.20078714 -0.39425483 -0.17322403 -0.19759846 -0.20213062
-0.51431924 -1.5079869 -0.42759916 -0.16567081 0.1543343 -0.07532449 -1.7505655 -0.5386863
0.032593787 -0.11108905 -0.13686556 -0.36086327 -0.14009161 -0.15811734 -0.25758776 -0.3144587
00000000: c100 50be 5d56 22be 77a3 c3be 207f 38be
00000010: 66a6 17bf 3c7f babe d26f 33bd 6c88 7dbe
00000020: 5ad7 7f3e b40b 9fbe 1bf0 e63d 259b 4dbe
00000030: c5db c9be a461 31be 4057 4abe 54fb 4ebe
00000040: 6daa 03bf b705 c1bf 47ee dabe 9ca5 29be
00000050: d009 1e3e ba43 9abd 8812 e0bf 58e7 09bf
00000060: 1081 053d a882 e3bd 7c26 0cbe 12c3 b8be
00000070: 2d74 0fbe 83e9 21be 8be2 83be bb00 a1be

layers.bn_1.running_var f4 [32]
0.97982246 2.6469812 0.7778796 0.6669971 1.6222237 3.612881 5.238134 1.0514551
1.0235018 0.8582642 0.39292195 0.83660936 0.92191786 4.09915 0.9334957 1.9264996
1.5269642 4.5919623 0.971434 1.0243512 5.2994795 0.90536153 8.122572 0.8454239
0.5209299 1.4185473 1.5177512 1.0845016 0.6814061 1.2502146 0.83862484 0.74081665
00000000: a5d5 7a3f 2468 2940 1e23 473f 52c0 2a3f
00000010: 07a5 cf3f 7139 6740 cb9e a740 1596 863f
00000020: 1b02 833f 34b7 5b3f 112d c93e 082c 563f
00000030: cf02 6c3f 3d2c 8340 93f9 6e3f 8a97 f63f
00000040: 9073 c33f 5bf1 9240 e6af 783f f11d 833f
00000050: 5695 a940 c6c5 673f 0ef6 0141 b36d 583f
00000060: a95b 053f f592 b53f ac45 c23f f3d0 8a3f
00000070: a170 2e3f 0807 a03f 1eb0 563f 29a6 3d3f

layers.conv3_2.weight f4 [32, 32, 3, 3]
-0.1957 0.1985199 0.29871413 -0.37818938 -0.19592097 0.1487597 -0.0351062 -0.002934728
0.18554865 0.22320856 -0.51937073 0.6189826 0.31305957 -0.1969719 0.29733664 -0.6716707
-0.2178496 -0.36744726 0.34998026 0.21206911 0.04038428 -0.009651247 0.01673496 -0.46174237
0.236245 0.08352242 -0.19562325 0.13529673 0.109427944 0.2537127 0.3271097 0.08842967
-0.051569555 0.004597969 0.06653211 -0.16060989 -0.21801087 0.17109992 -0.01485318 0.09972071
0.31852534 -0.12876654 0.091800265 0.17060365 -0.35029346 -0.11038975 -0.6066067 0.49256396
0.27710792 -0.4562967 0.36975127 0.11713398 -0.5202677 -0.063916005 0.0042373897 0.0009071517
-0.13318121 -0.26803255 0.06328303 0.3943983 0.30503193 0.34862357 0.06941235 -0.29946613
-0.13842684 -0.45157453 -0.04927015 -0.09737431 -0.20495053 0.14162323 0.24180792 0.04221349
-0.18959153 -0.4395969 -0.10765008 0.34931168 0.07012945 0.29172215 0.26665336 0.010854939
0.21547696 0.24494877 -0.33466372 0.6669447 0.14652672 -0.2455713 0.30791673 -0.23964275
-0.37028664 -0.40304813 0.12714037 0.27589577 0.18286441 0.12090668 0.18164581 0.23423047
-0.18815525 -0.15411904 -0.2804698 0.1874941 -0.020802816 0.24753638 0.20957115 -0.10577316
0.16660838 -0.2173812 -0.033712644 -0.39867476 -0.42986125 -0.35138854 0.1718376 -0.4495791
-0.24547568 0.2959322 0.049895905 0.12459368 0.7714614 0.18072362 -0.09917611 -0.19186296
-0.2040443 -0.27010578 0.04560494 -0.23080498 0.38369235 0.23974158 0.18237543 0.14413601
0.12841527 -0.25184432 0.024176765 -0.09555761 -0.26031253 0.26981705 -0.17603163 0.08878462
-0.18120326 0.43546107 -0.11310478 -0.42353383 0.46645862 -0.47427115 -0.3881798 0.1162127
-0.042616166 -0.37156895 0.25067556 0.053512394 -0.19316567 0.54244715 0.015214761 -0.38739172
0.3877926 0.84495187 0.4972379 -0.12313388 0.07572647 -0.039694343 -0.73976696 0.13746873
0.36025178 -0.6018809 0.31914687 0.615911 -0.027516086 0.21143934 0.16382055 -0.34285796
0.16376024 -0.12516734 -0.37990585 0.053575967 -0.0797433 -0.15039319 0.020088874 -0.20906195
-0.088208094 0.3164518 -0.07250248 -0.046068862 -0.18794148 -0.16962774 -0.27333948 0.4114637
0.24917616 -0.11045686 0.27591884 0.10935907 -0.3128709 0.45996988 0.09849785 -0.06903415
0.12672175 0.061860953 -0.15455295 -0.06945473 -0.052968115 -0.27713826 -0.09764096 -0.26736498
0.44925785 -0.26188356 -0.074985504 0.3710901 -0.70817703 -0.11613363 0.2013787 -0.011636675
0.23026451 0.0022846793 -0.5652831 -0.16068743 -0.1279038 -0.50411904 -0.07458284 0.18704168
0.0035599838 -0.08086692 0.1814378 0.33679134 0.11565397 -0.054207947 0.06890011 0.14395796
-0.10604219 0.13899577 -0.047555935 -0.5579249 0.06255315 -0.23316635 -0.22650541 0.21061128
0.12458964 0.035983898 -0.20694548 0.41870934 0.08696715 -0.0219657 0.26495698 0.044955615
-0.14392743 0.0028397266 -0.42709836 -0.21994586 -0.14321142 -0.5507007 -0.00063773163 0.42867044
-0.3044086 0.62409884 0.5335702 -0.10534194 0.11406754 -0.06793105 -0.10975092 0.15811877
00000000: 9565 48be cd48 4b3e 0ff1 983e 0aa2 c1be
00000010: 829f 48be 7654 183e 85cb 0fbd 9154 40bb
00000020: 7700 3e3e c990 643e 7bf5 04bf a575 1e3f
00000030: 5849 a03e 00b3 49be 823c 983e 9cf2 2bbf
00000040: f713 5fbe 0c22 bcbe 9d30 b33e a528 593e
00000050: fd69 253d 4420 1ebc c117 893c 7f69 ecbe
00000060: 36ea 713e cd0d ab3d 7651 48be 3a8b 0a3e
00000070: c21b e03d a2e6 813e ec7a a73e 9d1a b53d
00000080: 993a 53bd 8faa 963b fd41 883d eb76 24be
00000090: 3e3e 5fbe d134 2f3e c15a 73bc 5f3a cc3d
000000a0: c115 a33e 60db 03be c701 bc3d b9b2 2e3e
000000b0: aa59 b3be 0514 e2bd 944a 1bbf 5831 fc3e
000000c0: 17e1 8d3e b99f e9be 0a50 bd3e f1e3 ef3d
000000d0: 4430 05bf 65e6 82bd cdd9 8a3b eccd 6d3a
000000e0: a860 08be 903b 89be 899a 813d 93ee c93e
000000f0: 252d 9c3e ca7e b23e 1028 8e3d a053 99be
00000100: c4bf 0dbe c734 e7be 7fcf 49bd 2f6c c7bd
00000110: 8dde 51be ae05 113e 7f9c 773e 0de8 2c3d
00000120: 4824 42be d812 e1be a577 dcbd fbd8 b23e
00000130: 07a0 8f3d 9b5c 953e ca86 883e ead8 313c
00000140: fea5 5c3e dad3 7a3e 0b59 abbe e3bc 2a3f
00000150: 1a0b 163e 0b77 7bbe 43a7 9d3e e964 75be
00000160: 3696 bdbe 535c cebe 1631 023e 3642 8d3e
00000170: cf40 3b3e ec9d f73d 5c01 3a3e 1dda 6f3e
00000180: c5ab 40be 62d1 1dbe bd99 8fbe 74fe 3f3e
00000190: ab6a aabc 2d7a 7d3e d299 563e 999f d8bd
000001a0: 639b 2a3e 2d99 5ebe 4516 0abd 191f ccbe
000001b0: c616 dcbe 33e9 b3be 32f6 2f3e 3b2f e6be
000001c0: fa5d 7bbe 6d84 973e a65f 4c3d f92a ff3d
000001d0: 7f7e 453f 9d0f 393e d81c cbbd b977 44be
000001e0: fdf0 50be 4e4b 8abe 3fcc 3a3d 2458 6cbe
000001f0: 5373 c43e d17e 753e a0c0 3a3e 6498 133e
00000200: 4b7f 033e bdf1 80be 5a0e c63c b5b3 c3bd
00000210: af47 85be 7625 8a3e a341 34be b6d4 b53d
00000220: 598d 39be c1f4 de3e 7ba3 e7bd 6dd9 d8be
00000230: aad3 ee3e abd3 f2be 81bf c6be ed00 ee3d
00000240: 4a8e 2ebd 493e bebe 8c58 803e d02f 5b3d
00000250: 39cd 45be d1dd 0a3f 5547 793c 3558 c6be
00000260: c08c c63e c44e 583f f795 fe3e 9e2d fcbd
00000270: 7b16 9b3d 8996 22bd 5e61 3dbf 9ac4 0c3e
00000280: ec72 b83e de14 1abf 3867 a33e 58ac 1d3f
00000290: 6a69 e1bc 8e83 583e 93c0 273e 148b afbe
000002a0: c4b0 273e de2b 00be 0583 c2be 7972 5b3d
000002b0: 7550 a3bd ac00 1abe 6c91 a43c 5614 56be
000002c0: 72a6 b4bd f805 a23e 2e7c 94bd b4b2 3cbd
000002d0: bb73 40be e5b2 2dbe 27f3 8bbe 5fab d23e
000002e0: 0928 7f3e 3537 e2bd 3c45 8d3e a6f7 df3d
000002f0: 9d30 a0be 2c81 eb3e 3eb9 c93d c761 8dbd
00000300: 59c3 013e e961 7d3d 2143 1ebe 483e 8ebd
00000310: 18f5 58bd 11e5 8dbe fcf7 c7bd 10e4 88be
00000320: 2005 e63e 9a15 86be 0092 99bd 86ff bd3e
00000330: 174b 35bf 78d7 edbd 3836 4e3e c1a7 3ebc
00000340: 76ca 6b3e 8fba 153b 65b6 10bf 3f8b 24be
00000350: 37f9 02be f20d 01bf e3be 98bd db87 3f3e
00000360: 9e4e 693b 8e9d a5bd d5ca 393e ea6f ac3e
00000370: fddb ec3d 2709 5ebd 801b 8d3d b769 133e
00000380: a62c d9bd e854 0e3e 03ca 42bd 2bd4 0ebf
00000390: de1b 803d 29c3 6ebe 09f1 67be 7caa 573e
000003a0: da28 ff3d da63 133d 84e9 53be 1261 d63e
000003b0: d51b b23d 69f1 b3bc 71a8 873e 6123 383d
000003c0: b661 13be b51a 3a3b a3ac dabe 7d39 61be
000003d0: 04a6 12be b9fa 0cbf 722d 27ba b17a db3e
000003e0: 72db 9bbe f1c4 1f3f 0e98 083f 84bd d7bd
000003f0: 3e9c e93d 6f1f 8bbd 17c5 e0bd e3e9 213e

layers.conv3_2.bias f4 [32]
-2.259023e-05 3.6464622e-05 1.9914822e-05 8.678617e-06 -1.7677283e-05 3.3807813e-05 2.215654e-05 4.0890078e-05
7.0259625e-06 4.0626757e-05 2.9723275e-05 3.4563633e-05 -3.766394e-05 -1.24616045e-05 -5.0557134e-07 -1.06281705e-05
3.4174405e-05 5.617446e-06 2.4786474e-05 2.5459341e-05 1.915532e-05 1.7851873e-05 -8.837411e-06 4.263399e-05
-2.8815604e-05 -1.9798003e-05 -2.555881e-05 -3.2839955e-05 3.633177e-05 -3.2929245e-05 -3.911073e-06 -2.8306496e-05
00000000: 2680 bdb7 97f1 1838 c10e a737 609a 1137
00000010: ad49 94b7 ddcc 0d38 cfdc b937 6381 2b38
00000020: 8fc0 eb36 a666 2a38 3f56 f937 6bf8 1038
00000030: 59f9 1db8 2f12 51b7 99b6 07b5 a54f 32b7
00000040: 7d56 0f38 7e7d bc36 8cec cf37 8591 d537
00000050: bdaf a037 9bc0 9537 6444 14b7 e6d1 3238
00000060: 0ab9 f1b7 e313 a6b7 2067 d6b7 a2bd 09b8
00000070: f162 1838 821d 0ab8 dc3b 83b6 bd73 edb7

layers.conv5_2.weight f4 [32, 32, 5, 5]
-0.08929674 -0.14902061 -0.046381596 -0.05050465 -0.20345026 -0.05163437 -0.084476374 -0.007019818
0.047207944 0.048902724 -0.0025255382 -0.09863412 -0.052249577 0.018551124 -0.06909534 0.0069930865
-0.024888583 -0.011245779 0.0123345675 -0.11146482 0.020742457 -0.022113614 -0.12253305 -0.112630635
-0.16369243 0.10262033 -0.054506723 -0.14199387 -0.12767182 -0.21560484 0.23623686 0.217384
0.12952106 0.10923089 0.17729104 0.1866066 0.22640252 0.1502329 0.2138131 0.33032644
0.0206023 0.09872983 -0.0005860294 0.051795762 0.14317952 -0.18852769 -0.04973779 -0.11845488
-0.17286463 -0.1798327 -0.21576385 -0.21689096 -0.18196826 0.0059846994 -0.027964741 0.068765596
-0.041030284 0.039443932 0.012685019 0.1876797 0.18024668 0.09568141 0.18509528 0.14756738
0.099723764 0.088119775 -0.058947943 0.14827992 0.09187198 -0.0054864804 -0.15736695 -0.18799338
-0.08019862 -0.16751637 -0.3728223 0.056636292 0.08884827 0.04171744 -0.029810155 0.040107865
0.020222565 0.13416836 -0.055435278 -0.08543898 0.011355353 0.105540946 0.03270037 -0.07182152
-0.117112204 0.08888704 0.052001346 -0.016447324 -0.05659617 -0.121898286 -0.016954126 -0.06394202
-0.06187552 -0.16240294 -0.19821893 -0.10109103 0.08167978 0.07150566 0.077795126 0.0927226
0.18780664 -0.037482757 -0.07528073 -0.039476763 -0.05173027 0.0055961 -0.09370156 -0.15333267
-0.16008902 -0.22930096 -0.17567855 -0.031239513 -0.0851487 -0.08631092 -0.0372519 -0.015645701
0.11215622 0.075810574 0.10343897 0.15151577 0.21323898 0.016588973 -0.10130934 -0.102621496
-0.062295645 -0.077562295 0.18181157 -0.05290769 -0.051831454 0.06298495 0.06544291 0.21416485
0.008763817 0.04246473 0.05570678 0.1900615 0.10432836 -0.010885604 0.051376514 0.012931091
0.11493346 0.0657353 -0.101520106 -0.019387659 -0.13213179 -0.07308265 -0.4084233 -0.39783153
-0.45660347 -0.31671083 -0.43250197 0.10053557 0.025582861 0.040508054 0.042559866 0.068718225
0.28537598 0.29033563 0.29042217 0.16421057 0.24196365 0.13959187 0.25263357 0.25266352
0.12975393 0.17015186 0.027628943 0.08547251 0.105318464 0.04877711 -0.0038434102 0.092409275
0.109492734 0.022991315 -0.010029098 -0.2657523 0.087043464 0.13986646 0.074754335 -0.00035269177
0.04035386 0.045988128 0.08653769 0.02436722 0.112562835 0.021956101 -0.12093121 0.009291373
-0.022069385 0.017267542 0.00034015978 -0.038957357 -0.054177642 -0.02080638 -0.036455035 -0.07366183
-0.20272791 -0.21217982 -0.14498153 -0.14348549 -0.23033161 0.10644876 0.07569786 0.10395072
0.08759413 -0.035542797 0.073717706 0.07766797 0.10123779 0.09570754 -0.033249035 -0.017086092
-0.06448763 -0.0837326 0.0505655 -0.06989169 0.021619052 -0.040489387 -0.076481484 0.08593947
0.0143382475 -0.13386334 -0.15158232 -0.09979753 -0.112075716 -0.02152963 0.0072980365 -0.029207211
0.015384274 0.024069512 0.12421763 0.14280792 0.1379487 0.08292437 0.22965 0.18548597
0.11630442 0.22496083 0.104578264 0.075212255 0.1429021 -0.11870299 0.05669075 -0.14280011
-0.15726097 0.066968165 0.10677819 0.13998422 0.09465805 0.02261635 0.064197026 0.048870765
00000000: 36e1 b6bd dc98 18be a1fa 3dbd f7dd 4ebd
00000010: 4455 50be 907e 53bd f301 adbd 8006 e6bb
00000020: 1e5d 413d 394e 483d 8083 25bb af00 cabd
00000030: a703 56bd 87f8 973c dc81 8dbd 4326 e53b
00000040: 24e3 cbbc 3740 38bc ed16 4a3c ab47 e4bd
00000050: 16ec a93c 9c27 b5bc 9cf2 fabd e4aa e6bd
00000060: fd9e 27be 9c2a d23d 7142 5fbd d766 11be
00000070: 67bc 02be 84c7 5cbe 13e8 713e e999 5e3e
00000080: 2ba1 043e 72b4 df3d c88b 353e cd15 3f3e
00000090: 10d6 673e a7d6 193e d2f1 5a3e 8c20 a93e
000000a0: 28c6 a83c dd32 ca3d c49f 19ba cb27 543d
000000b0: a79d 123e 670d 41be dab9 4bbd 7998 f2bd
000000c0: 6d03 31be 1026 38be 33f1 5cbe aa18 5ebe
000000d0: e355 3abe 4c1b c43b 5016 e5bc fad4 8c3d
000000e0: 5f0f 28bd f68f 213d d3d4 4f3c 1b2f 403e
000000f0: 9692 383e 9df4 c33d 9e89 3d3e e71b 173e
00000100: f93b cc3d 2478 b43d 6673 71bd b1d6 173e
00000110: 6027 bc3d efc7 b3bb cd24 21be 5681 40be
00000120: 2d3f a4bd 6989 2bbe 91e2 bebe 75fb 673d
00000130: 15f6 b53d e8df 2a3d 6d34 f4bc 2548 243d
00000140: cba9 a53c 6e63 093e 1a10 63bd a2fa aebd
00000150: cd0b 3a3c da25 d83d d3f0 053d 2917 93bd
00000160: 86d8 efbd 690a b63d 5dff 543d 8abc 86bc
00000170: 63d1 67bd cfa5 f9bd 61e3 8abc 09f4 82bd
00000180: 2f71 7dbd f54c 26be e7f9 4abe d008 cfbd
00000190: ba47 a73d 8f71 923d 0d53 9f3d 59e5 bd3d
000001a0: 6250 403e 8587 19bd c92c 9abd 63b2 21bd
000001b0: 1fe3 53bd 7d5f b73b 9ae6 bfbd 3d03 1dbe
000001c0: 60ee 23be dfcd 6abe 14e5 33be 02ea ffbc
000001d0: 7162 aebd c8c3 b0bd 7395 18bd 6a2b 80bc
000001e0: 29b2 e53d 9342 9b3d d0d7 d33d f326 1b3e
000001f0: 525b 5a3e 99e5 873c 457b cfbd 382b d2bd
00000200: b829 7fbd fbd8 9ebd d02c 3a3e bcb5 58bd
00000210: 384d 54bd 41fe 803d ef06 863d 084e 5b3e
00000220: 1d96 0f3c 7fef 2d3d cb2c 643d 7b9f 423e
00000230: 1baa d53d 8859 32bc 2e70 523d eddc 533c
00000240: 3c62 eb3d 3ba0 863d c6e9 cfbd ded2 9ebc
00000250: 8e4d 07be 5bac 95bd dc1c d1be 93b0 cbbe
00000260: eec7 e9be ec27 a2be e670 ddbe 98e5 cd3d
00000270: 2693 d13c c6eb 253d 4153 2e3d 24bc 8c3d
00000280: cd1c 923e dfa6 943e 37b2 943e d126 283e
00000290: 52c5 773e 2cf1 0e3e 3059 813e 1d5d 813e
000002a0: 37de 043e 4a3c 2e3e 1856 e23c 360c af3d
000002b0: 35b1 d73d 82ca 473d b9e1 7bbb 1341 bd3d
000002c0: ba3d e03d 4858 bc3c 1651 24bc af10 88be
000002d0: d843 b23d 2739 0f3e cd18 993d 7de9 b8b9
000002e0: 174a 253d 0c5e 3c3d ac3a b13d c49d c73c
000002f0: 5887 e63d 48dd b33c c8aa f7bd d83a 183c
00000300: dbca b4bc a974 8d3c 7957 b239 c091 1fbd
00000310: 60e9 5dbd 2472 aabc e051 15bd 03dc 96bd
00000320: e897 4fbe ab45 59be 0a76 14be dced 12be
00000330: 0ddc 6bbe cf01 da3d 7b07 9b3d 1de4 d43d
00000340: 8d64 b33d 5395 11bd 4ff9 963d 6210 9f3d
00000350: c255 cf3d 5102 c43d 2430 08bd 22f8 8bbc
00000360: 1712 84bd ff7b abbd c51d 4f3d 6023 8fbd
00000370: 701a b13c 33d8 25bd 53a2 9cbd 0801 b03d
00000380: f8ea 6a3c 7913 09be 6538 1bbe a662 ccbd
00000390: f487 e5bd e85e b0bc 5e24 ef3b f643 efbc
000003a0: 520e 7c3c 6d2d c53c d065 fe3d 3d3c 123e
000003b0: 6d42 0d3e 41d4 a93d 5f29 6b3e 09f0 3d3e
000003c0: 0331 ee3d 225c 663e 212d d63d e208 9a3d
000003d0: ee54 123e 8e1a f3bd 8f34 683d 313a 12be
000003e0: 0509 21be 9b26 893d 86ae da3d 0658 0f3e
000003f0: 14dc c13d ec45 b93c bb79 833d b62c 483d

layers.conv5_2.bias f4 [32]
-0.012523989 0.009927856 0.00431423 -0.0145610375 0.0012800008 -0.0005663688 0.0123640355 0.015565004
-0.015893152 -0.0008596291 0.0076649725 0.013661075 0.013747889 -0.0017398453 0.004145422 0.0014529481
-0.016318653 -0.0006589628 -0.007921595 -0.011740063 0.0024455935 0.01586473 0.0045194845 -0.0035455986
0.014954651 -0.009670657 0.015166845 0.006784873 0.008556472 -0.000784871 -0.007904639 -0.00095165416
00000000: 6b31 4dbc 72a8 223c 625e 8d3b 6b91 6ebc
00000010: b3c5 a73a 5e78 14ba 8692 4a3c 5c04 7f3c
00000020: 5b32 82bc bb58 61ba 732a fb3b b4d2 5f3c
00000030: d33e 613c 850b e4ba 52d6 873b d970 be3a
00000040: b2ae 85bc 3fbe 2cba 94c9 01bc 6559 40bc
00000050: 4046 203b c0f6 813c 2f18 943b 465d 68bb
00000060: 5a04 753c ad71 1ebc 5c7e 783c a453 de3b
00000070: 7230 0c3c cdbf 4dba 7582 01bc 6e78 79ba

layers.bn_2.weight f4 [32]
1.8459152 0.5500856 0.9085187 0.4283772 0.15860209 0.6993673 1.026858 0.7112752
0.4888593 0.97984153 2.0632188 1.1036314 1.7262065 0.03306423 0.3647903 2.0866115
0.7298647 0.91551054 0.7695498 1.0629989 1.1014463 0.68957853 1.4564506 0.7761453
0.12602857 0.17768799 0.8293113 0.08889762 1.278959 0.3417784 0.82985216 1.0738791
00000000: f346 ec3f 69d2 0c3f ae94 683f 4254 db3e
00000010: 9668 223e bc09 333f 1570 833f 2216 363f
00000020: c44b fa3e e5d6 7a3f c70b 0440 cb43 8d3f
00000030: 56f4 dc3f 5c6e 073d cbc5 ba3e 0b8b 0540
00000040: 6ad8 3a3f e65e 6a3f 3701 453f 5910 883f
00000050: 31fc 8c3f 3888 303f f96c ba3f 75b1 463f
00000060: a20d 013e d7f3 353e bf4d 543f f50f b63d
00000070: eeb4 a33f 94fd ae3e 3171 543f df74 893f

layers.bn_2.bias f4 [32]
-0.0012517596 -0.000422066 -0.00099237 -0.0005012629 -0.0006103174 -0.00056196726 -0.00062654377 -0.0006824477
-0.000744358 -0.0005005411 -0.0009185003 -0.00029657915 -0.00035394926 -0.000744707 -0.00022440335 -0.00077552005
-4.303232e-05 5.2269366e-05 -0.0007163128 -0.0005873496 -0.0008079036 -0.00047789543 -0.0006425008 -0.0006278833
-0.00014744094 -0.000681073 -0.00038147782 -0.00034094398 -0.0008512981 -0.00029903214 -0.00023398516 -0.0006668672
00000000: 1512 a4ba bd48 ddb9 6912 82ba 2f67 03ba
00000010: b5fd 1fba fc50 13ba a43e 24ba 4ae6 32ba
00000020: 0521 43ba bf36 03ba 83c7 70ba 2e7e 9bb9
00000030: 4492 b9b9 7138 43ba d14d 6bb9 454c 4bba
00000040: 9a7d 34b8 ce3b 5b38 f0c6 3bba 5df8 19ba
00000050: 7ec9 53ba 0a8e fab9 806d 28ba 8998 24ba
00000060: 609a 1ab9 098a 32ba 1601 c8b9 bac0 b2b9
00000070: a629 5fba 6ac7 9cb9 ea59 75b9 b3d0 2eba

layers.bn_2.running_mean f4 [32]
0.96651185 -1.3469931 -1.1131977 -0.10151298 0.856413 1.224724 -1.0059971 1.8678198
0.74555206 0.97730273 0.5956957 -2.0026834 0.9170848 0.21899912 -0.91715974 -0.078904875
-1.4802275 0.09471197 -0.79866815 0.43581796 -3.4036849 1.1940838 0.27687615 1.4395542
0.021846622 0.47932833 -2.4253953 -0.1716621 0.13927162 0.5390166 0.06316389 2.062063
00000000: 526d 773f 456a acbf 437d 8ebf 0ae6 cfbd
00000010: e23d 5b3f c2c3 9c3f 83c4 80bf b814 ef3f
00000020: 80dc 3e3f 8330 7a3f 837f 183f f72b 00c0
00000030: 12c6 6a3f 4e41 603e fbca 6abf e198 a1bd
00000040: 1878 bdbf 59f8 c13d 8475 4cbf 8823 df3e
00000050: f9d5 59c0 bdd7 983f b6c2 8d3e 5043 b83f
00000060: b0f7 b23c 866a f53e ad39 1bc0 31c8 2fbe
00000070: 389d 0e3e fefc 093f 125c 813d d7f8 0340

layers.bn_2.running_var f4 [32]
0.854642 0.41487515 0.6383489 0.27861977 0.1839489 0.5288513 0.62916267 0.62581766
0.39377713 0.6490591 0.9360934 0.64336884 0.5872203 0.04783568 0.3083287 0.9680985
0.56057626 0.47077337 0.4888723 0.7027415 0.94862396 0.6945199 0.9320332 0.8029105
0.06715234 0.1558435 0.45077634 0.18065204 0.7422401 0.18151625 0.85397685 0.7881727
00000000: d1c9 5a3f 846a d43e d56a 233f 40a7 8e3e
00000010: 1a5d 3c3e cc62 073f ce10 213f 9635 203f
00000020: 289d c93e bd28 263f d1a3 6f3f d2b3 243f
00000030: 1254 163f 59ef 433d 42dd 9d3e 4ed5 773f
00000040: ed81 0f3f 3509 f13e 784d fa3e dee6 333f
00000050: 05d9 723f 0ecc 313f ba99 6e3f 8b8b 4d3f
00000060: 2b87 893d 7095 1f3e 28cc e63e d9fc 383e
00000070: 7203 3e3f 65df 393e 3a9e 5a3f b0c5 493f

layers.conv3_3.weight f4 [32, 32, 3, 3]
0.1591727 0.09041732 0.15266953 0.025113197 -0.031002022 0.031224238 0.0721023 0.042973604
0.07605041 -0.10962288 -0.08501694 -0.11137019 0.016881056 0.02905506 0.009753394 -0.05398057
-0.023401296 -0.05071281 -0.047968388 -0.010288377 -0.058788624 -0.006053988 0.039343655 -0.0006213699
0.0044545666 0.044653207 0.022323452 0.019639034 6.534723e-05 0.02140129 0.012400459 0.0046810163
0.02240536 -0.010348831 -0.0069013615 0.011083432 -0.0010312729 0.029867236 0.021277722 0.010290256
0.06898274 0.05575357 -0.02630318 0.019155962 0.019256035 -0.032372437 -0.035004213 -0.044952642
-0.011031078 -0.033245027 -0.02618099 0.021604475 -0.005154635 -0.0032229025 0.13047744 0.10209753
0.062318627 0.097902276 0.057441983 0.04675371 0.06414254 0.05620841 0.03123327 0.09606925
0.03333829 0.048144195 -0.0067113205 -0.048474293 -0.024564847 0.072584294 0.057292767 0.0908376
0.0068720547 -0.024329064 0.0006278274 -0.02178151 -0.04107632 -0.029777285 -0.010668018 -0.009328947
0.008810675 -0.016037798 0.0120257875 -0.02799801 0.003692455 0.05032245 -0.008377812 -0.06303159
0.0035107038 -0.04551775 0.028942395 0.045041457 0.030327667 0.0056347707 -0.018596353 -0.012175412
-0.008249702 -0.01021735 -0.012498787 -0.1176091 -0.0864383 -0.09724027 -0.054946434 -0.015444117
-0.03571186 -0.09512495 -0.04112904 -0.055763546 -0.16827208 -0.11633918 -0.16287355 -0.05251502
-0.004509082 -0.066442855 -0.12613085 -0.07023398 -0.124151595 0.09578899 0.037108682 0.08171983
0.08306329 0.021851894 0.058044832 0.11990804 0.06217048 0.09305649 0.038642682 0.025463633
0.061499353 0.011104774 -0.027967455 0.008397947 0.09137258 0.06865625 0.07134453 -0.0025029047
-0.020130955 0.031845618 0.014794195 -0.019297915 0.048863623 0.098435454 0.052527316 0.1169721
-0.01569647 -0.031375237 -0.02530261 -0.063192524 -0.057278078 -0.043026358 -0.054449588 -0.032936845
-0.049027376 0.017345045 0.027070904 -0.004325071 0.03569493 0.057077255 0.04429283 -0.008801294
0.019098777 0.004374929 0.11898916 0.058433052 0.10074052 0.0031664046 -0.0427586 -0.0039383993
0.063957565 0.02103281 0.04754566 0.10836532 0.06976814 0.07983506 0.02985069 0.0069959555
0.0061348947 0.030370394 0.011061722 0.009662649 0.036912493 -0.020994317 0.09273738 0.0042975848
-0.05899292 0.03962139 0.094162844 0.042820487 0.119083844 0.027672805 0.057081413 0.038692806
-0.005317558 0.012494369 -0.00028445083 0.0017019176 0.023684463 -0.0026885793 -0.18956129 -0.103734925
-0.17460112 -0.03603253 0.056247707 -0.01554754 -0.14764453 -0.07058619 -0.12411471 0.06399313
0.054907132 0.08189578 0.020423766 -0.0040626344 0.020414501 0.020910513 0.019610178 0.029826656
0.02224529 0.049304895 0.012182669 -0.00391501 0.0317174 -0.010625728 -0.037586316 0.0014631606
-0.022710446 0.0831602 0.009998238 0.09546158 0.043466467 -0.023076575 0.05783224 0.1402303
0.07436579 0.15943366 -0.016629884 0.025651474 -0.0014283686 -0.017660204 0.019996615 -0.015026709
-0.08377391 -0.053194415 -0.07760795 0.1365271 0.08456281 0.120147176 0.10552468 0.036613375
0.09222505 0.07525283 0.012644592 0.08520058 -0.06855999 0.013914388 -0.07316748 -0.084613524
00000000: 2bfe 223e b72c b93d 6755 1c3e 31ba cd3c
00000010: f4f7 fdbc f9c9 ff3c 5faa 933d 1705 303d
00000020: 51c0 9b3d f681 e0bd 5d1d aebd 0e16 e4bd
00000030: 244a 8a3c e104 ee3c b3cc 1f3c bb1a 5dbd
00000040: 13b4 bfbc 3cb8 4fbd 807a 44bd 9590 28bc
00000050: 57cc 70bd 8860 c6bb d026 213d 6ee3 22ba
00000060: 9df7 913b 48e6 363d acdf b63c 0ae2 a03c
00000070: 070b 8938 c251 af3c 4b2b 4b3c 3663 993b
00000080: 728b b73c 258e 29bc d124 e2bb 4897 353c
00000090: c72b 87ba 22ac f43c 9e4e ae3c 7698 283c
000000a0: d346 8d3d db5d 643d c479 d7bc f7ec 9c3c
000000b0: d5be 9d3c f698 04bd 9460 0fbd 4320 38bd
000000c0: b2bb 34bc f02b 08bd 8479 d6bc defb b03c
000000d0: 36e8 a8bb 5537 53bb e19b 053e 8318 d13d
000000e0: d141 7f3d fd80 c83d 4948 6b3d d180 3f3d
000000f0: 2a5d 833d ca3a 663d eadc ff3c f4bf c43d
00000100: bb8d 083d d932 453d a3ea dbbb fb8c 46bd
00000110: 383c c9bc 13a7 943d d2ab 6a3d 1009 ba3d
00000120: f92e e13b bf4d c7bc c994 243a 236f b2bc
00000130: a53f 28bd 7eef f3bc e9c8 2ebc 71d8 18bc
00000140: a65a 103c b361 83bc cf07 453c 155c e5bc
00000150: 1dfd 713b ea1e 4e3d 1743 09bc b516 81bd
00000160: d613 663b d270 3abd 9a18 ed3c 647d 383d
00000170: ba71 f83c e2a3 b83b 6157 98bc 617b 47bc
00000180: c229 07bc ac66 27bc b6c7 4cbc 0add f0bd
00000190: 9006 b1bd e825 c7bd 830f 61bd 5209 7dbc
000001a0: 9946 12bd dfd0 c2bd ed76 28bd 5168 64bd
000001b0: 844f 2cbe 3c43 eebd 53c8 26be fd19 57bd
000001c0: ecc0 93bb 3113 88bd 7228 01be d5d6 8fbd
000001d0: 3143 febd 052d c43d 46ff 173d ba5c a73d
000001e0: 161d aa3d be02 b33c 6bc0 6d3d 5992 f53d
000001f0: 79a6 7e3d 6794 be3d ca47 1e3d 1c99 d03c
00000200: bfe6 7b3d ccf0 353c 011c e5bc 8b97 093c
00000210: 8c21 bb3d a69b 8c3d 151d 923d c607 24bb
00000220: ace9 a4bc 8d70 023d 5a63 723c a916 9ebc
00000230: 3925 483d 8798 c93d e226 573d 128f ef3d
00000240: e295 80bc 5283 00bd 6b47 cfbc 156b 81bd
00000250: 6b9c 6abd 683c 30bd 8806 5fbd c9e8 06bd
00000260: eed0 48bd 3217 8e3c cdc3 dd3c 53b9 8dbb
00000270: d934 123d d7c9 693d 666c 353d 4d33 10bc
00000280: 0a75 9c3c 905b 8f3b 97b0 f33d 7f57 6f3d
00000290: 0c51 ce3d 7483 4f3b a423 2fbd b00d 81bb
000002a0: 2ffc 823d 004d ac3c 3dbf 423d a3ee dd3d
000002b0: 99e2 8e3d 9080 a33d 6f89 f43c 543e e53b
000002c0: 3a07 c93b 55cb f83c 3a3c 353c 1650 1e3c
000002d0: 8e31 173d 46fc abbc 18ed bd3d c1d2 8c3b
000002e0: 8fa2 71bd 0a4a 223d 73d8 c03d 8964 2f3d
000002f0: 3be2 f33d 14b2 e23c 33ce 693d 597c 1e3d
00000300: e93e aebb 2fb5 4c3c 5822 95b9 e112 df3a
00000310: eb05 c23c e032 30bb 5b1c 42be fa72 d4bd
00000320: a3ca 32be d996 13bd ff63 663d 1cbb 7ebc
00000330: 2130 17be 7e8f 90bd da2f febd d50e 833d
00000340: 4de6 603d fab8 a73d be4f a73c d91f 85bb
00000350: 503c a73c 864c ab3c 86a5 a03c 0857 f43c
00000360: c13b b63c eef3 493d d199 473c 7c49 80bb
00000370: 1bea 013d 8917 2ebc 1cf4 19bd 86c7 bf3a
00000380: 420b babc e54f aa3d a6cf 233c 5c81 c33d
00000390: e509 323d 160b bdbc 80e1 6c3d 8898 0f3e
000003a0: 174d 983d 9442 233e 653b 88bc 0a23 d23c
000003b0: 1938 bbba 22ac 90bc f1cf a33c 9632 76bc
000003c0: a891 abbd 63e2 59bd ebf0 9ebd c3cd 0b3e
000003d0: 442f ad3d b90f f63d 531d d83d e8f7 153d
000003e0: 7de0 bc3d 281e 9a3d 432b 4f3c a47d ae3d
000003f0: 2e69 8cbd 2cf9 633c d5d8 95bd db49 adbd

layers.conv3_3.bias f4 [32]
-2.3946304e-05 -2.7673172e-05 1.4774621e-05 3.2859778e-05 -8.440514e-06 2.8892247e-05 3.5970814e-05 -1.9514511e-05
-1.7553772e-06 8.4983185e-06 -2.0342384e-05 1.15602315e-05 2.128052e-05 -2.5837458e-05 -1.0112867e-05 -4.428292e-05
-4.993324e-06 8.789908e-06 4.23689e-05 -3.878604e-05 3.877254e-05 7.90203e-06 -4.439693e-05 2.916959e-06
2.1323618e-05 2.7627599e-05 -1.9242823e-05 -1.2113612e-05 -3.301663e-05 -3.3186214e-05 3.371289e-05 -9.584013e-06
00000000: 4ce0 c8b7 af23 e8b7 84e0 7737 ebd2 0938
00000010: bb9b 0db7 a15d f237 5edf 1638 18b3 a3b7
00000020: 4d9a ebb5 0094 0e37 f0a4 aab7 d1f2 4137
00000030: 9283 b237 85bd d8b7 6faa 29b7 6cbc 39b8
00000040: 548c a7b6 5e78 1337 43b5 3138 31ae 22b8
00000050: b39f 2238 f692 0437 d736 3ab8 f9c0 4336
00000060: 1fe0 b237 d1c1 e737 a66b a1b7 913b 4bb7
00000070: 567b 0ab8 6d31 0bb8 f166 0d38 06cb 20b7

layers.conv5_3.weight f4 [32, 32, 5, 5]
-0.12827203 -0.15046626 -0.1745517 -0.10038066 -0.116539516 -0.006168361 -0.07820393 -0.048284736
-0.03286853 -0.014896899 0.052229002 0.07402964 0.029002685 0.08377058 0.07692869 0.04321557
0.002056312 0.011068928 0.014361443 0.038958855 0.061535075 0.059736405 -0.015532974 0.0052677444
0.036177516 -0.16090414 0.05377486 0.041408133 -0.037120067 -0.0032470108 -0.11582408 0.07949221
0.0006706356 -0.026397187 -0.013316507 -0.07898622 0.06112609 0.0051694014 -0.02604163 0.016677527
-0.08641392 0.081250876 0.01394383 -0.018877445 0.03538247 -0.0832001 0.061540145 0.03493427
0.027466074 0.052877918 -0.15183905 -0.06616924 -0.059400555 -0.10644065 -0.21004352 -0.06414107
-0.026092289 0.0096621625 0.014545146 -0.09068123 -0.04159266 0.0672869 0.0808729 0.042893834
-0.015812445 -0.06970511 0.004769033 0.008850104 -0.022912173 -0.067069635 -0.1755309 -0.08252029
-0.15796006 -0.10710627 -0.17286888 -0.15240088 -0.11762912 0.012784721 -0.062949255 -0.17125651
-0.055976827 -0.06418183 0.010448233 0.0023837963 -0.10411361 0.0051660566 0.052267022 0.08266482
0.07173027 -0.045760226 0.02050388 0.08183283 0.05173699 0.048124958 -0.06147408 0.028301751
-0.0024458747 0.0011933569 0.0439041 -0.06378814 -0.031207766 0.022130845 -0.023716597 0.0043891873
0.031335704 -0.033850677 0.014195973 -0.015183234 0.01712006 -0.009032532 -0.008507497 0.014432513
0.06938719 0.063472755 0.012616202 -0.023002218 0.043811105 0.04301941 0.0068512964 0.00821889
0.020996524 0.009878397 -0.007935416 0.019267695 0.025632324 -0.15215309 -0.061716784 -0.09112618
-0.063116774 -0.25324246 -0.06485107 -0.028797578 -0.05136342 0.03590109 -0.082489915 -0.048538342
-0.0038238592 0.086055316 0.034601178 -0.06249731 0.015512513 0.076742984 0.059282668 0.044887703
-0.07908358 -0.004941823 0.011152873 -0.03548058 -0.011938451 -0.10421596 -0.011938009 0.0048963856
0.027172074 0.060043655 0.013831716 0.011517657 0.044973634 0.0071461974 0.024699682 0.045752898
-0.0008428106 -0.02582124 -0.032417294 0.01881339 0.06340073 0.022242883 0.04710239 -0.011203398
0.027736148 0.056663733 0.0248591 0.04221297 -0.060753316 0.032953702 0.0721787 0.1620171
0.15082906 0.16821982 0.19639221 0.13432576 0.16419479 0.08380919 0.071045786 0.06075668
0.075064026 0.10216436 0.015585446 -0.039666563 0.041847456 0.04522632 0.047403965 0.0013574649
0.026439829 0.0860444 0.072946265 0.10761188 0.09979176 0.07890969 0.12190875 0.087399796
-0.0009781267 0.036913563 -0.04348775 0.060810268 0.025436506 -0.02726031 0.010402293 -0.043574285
0.013920946 0.013153747 0.0043812497 0.07165933 0.027236812 0.01848788 -0.034659754 -0.028867042
0.019574333 0.04825006 0.003986697 -0.06365154 -0.03196794 0.029211711 0.018681085 -0.029280433
-0.01954332 -0.019358955 -0.035777293 -0.039348166 -0.022584008 -0.056531295 0.010266448 0.00826428
0.024358062 0.009810922 -0.024798442 -0.020496473 -0.023984313 0.020946806 0.0012755424 -0.055006802
0.04817298 -0.04746014 0.001966538 -0.016531121 -0.056140937 -0.04738561 -0.012906904 0.002856121
-0.03524217 -0.10903736 -0.059224356 0.039976202 -0.05637524 -0.030186579 -0.0177042 -0.091605216
00000000: be59 03be d413 1abe aebd 32be 6094 cdbd
00000010: 45ac eebd f61f cabb 6229 a0bd 37c6 45bd
00000020: 27a1 06bd 2012 74bc 14ee 553d da9c 973d
00000030: 0a97 ed3c e98f ab3d ca8c 9d3d cf02 313d
00000040: 31c3 063b 735a 353c 424c 6b3c 5293 1f3d
00000050: 340c 7c3d 29ae 743d 047e 7ebc 0b9d ac3b
00000060: e02e 143d 0ec4 24be 0743 5c3d 939b 293d
00000070: 360b 18bd cdcb 54bb 2d35 edbd d0cc a23d
00000080: 98cd 2f3a ea3e d8bc 7b2d 5abc 87c3 a1bd
00000090: 5a5f 7a3d 1564 a93b 4255 d5bc 4f9f 883c
000000a0: c8f9 b0bd dc66 a63d a974 643c dfa4 9abc
000000b0: 35ed 103d d064 aabd 8511 7c3d 3d17 0f3d
000000c0: 8800 e13c 8496 583d b27b 1bbe bd83 87bd
000000d0: ff4d 73bd 8efd d9bd a615 57be 655c 83bd
000000e0: 7fbf d5bc 0c4e 1e3c c44e 6e3c 15b7 b9bd
000000f0: 115d 2abd b7cd 893d b1a0 a53d 72b1 2f3d
00000100: 1a89 81bc 8dc1 8ebd 8c45 9c3b 0700 113c
00000110: 4fb2 bbbc ce5b 89bd 5fbe 33be 6600 a9bd
00000120: 48c0 21be 885a dbbd 8a04 31be fa0e 1cbe
00000130: 89e7 f0bd 0277 513c 8aeb 80bd de5d 2fbe
00000140: f547 65bd c371 83bd 112f 2b3c 7739 1c3b
00000150: 8439 d5bd 0648 a93b f215 563d 2c4c a93d
00000160: 52e7 923d 136f 3bbd c1f7 a73c f997 a73d
00000170: 2bea 533d ad1e 453d 3fcc 7bbd 13d9 e73c
00000180: f84a 20bb 6a6a 9c3a c9d4 333d 5ba3 82bd
00000190: 6ea7 ffbc bf4b b53c 4f49 c2bc 2cd3 8f3b
000001a0: de59 003d 02a7 0abd 3a96 683c 19c3 78bc
000001b0: 5e3f 8c3c 2ffd 13bc 0763 0bbc 5976 6c3c
000001c0: df1a 8e3d 01fe 813d 30b4 4e3c 266f bcbc
000001d0: 4673 333d 1f35 303d d780 e03b 86a8 063c
000001e0: e700 ac3c 00d9 213c 8c03 02bc 49d7 9d3c
000001f0: e1fa d13c 05ce 1bbe bdca 7cbd 5da0 babd
00000200: 5e43 81bd ffa8 81be a3d0 84bd e6e8 ebbc
00000210: 7362 52bd 050d 133d 79f0 a8bd 24d0 46bd
00000220: b699 7abb c53d b03d f7b9 0d3d 2efd 7fbd
00000230: 3228 7e3c 6d2b 9d3d 62d2 723d 2bdc 373d
00000240: 92f6 a1bd 04ef a1bb 8aba 363c 1654 11bd
00000250: 7e99 43bc 2d6f d5bd a497 43bc dc71 a03b
00000260: f897 de3c 56f0 753d 6c9e 623c 8eb4 3c3c
00000270: 4636 383d a62a ea3b fd56 ca3c 6467 3b3d
00000280: 10f0 5cba 1187 d3bc ffc7 04bd 8a1e 9a3c
00000290: 3ed8 813d b536 b63c 70ee 403d 758e 37bc
000002a0: eb36 e33c 3b18 683d 50a5 cb3c 82e7 2c3d
000002b0: 78d8 78bd 76fa 063d 6dd2 933d d0e7 253e
000002c0: ef72 1a3e d141 2c3e 0a1b 493e b18c 093e
000002d0: ae22 283e 27a4 ab3d 7480 913d ffdb 783d
000002e0: 2bbb 993d 8c3b d13d 195a 7f3c 6879 22bd
000002f0: 3d68 2b3d 3c3f 393d a92a 423d f7ec b13a
00000300: 5798 d83c 0c38 b03d da64 953d 9e63 dc3d
00000310: 9f5f cc3d 679b a13d 4bab f93d aafe b23d
00000320: 7c34 80ba ad32 173d 3620 32bd 3014 793d
00000330: 3860 d03c 0351 dfbc 616e 2a3c f37a 32bd
00000340: ae14 643c d082 573c 9690 8f3b 20c2 923d
00000350: bc1f df3c e573 973c 63f7 0dbd 937a ecbc
00000360: 5a5a a03c dba1 453d d7a2 823b bd5b 82bd
00000370: d1f0 02bd 664d ef3c 1309 993c 85dd efbc
00000380: 5019 a0bc ac96 9ebc 368b 12bd 8b2b 21bd
00000390: 1902 b9bc 5c8d 67bd 9b34 283c e766 073c
000003a0: 8f8a c73c fdbd 203c 1a26 cbbc 38e8 a7bc
000003b0: c07a c4bc a398 ab3c 1a30 a73a d04e 61bd
000003c0: 0851 453d 9065 42bd 08e1 003b 466c 87bc
000003d0: 0af4 65bd 6a17 42bd 7b77 53bc c22d 3b3b
000003e0: 185a 10bd fb4e dfbd 3d95 72bd 16be 233d
000003f0: b9e9 66bd d849 f7bc 6608 91bc 849b bbbd

layers.conv5_3.bias f4 [32]
-0.004793221 -0.0017879958 0.010703511 -0.01188196 -0.0064775078 0.012464434 -0.0031030881 -0.0014262142
0.0054953853 0.0057173944 -0.0049047694 -0.011439847 -0.01742334 -0.002269419 0.00073369726 0.0018774641
0.0030653656 -0.005278672 0.008107214 -0.008942676 0.012497531 -0.011218139 0.009233105 -0.01424052
-0.008376765 -0.002660001 -0.009817473 -0.015452027 0.00688885 0.004086331 -0.001881443 0.007389828
00000000: 7410 9dbb 2f5b eaba c75d 2f3c 8dac 42bc
00000010: 4641 d4bb a037 4c3c 2e5d 4bbb cfef baba
00000020: a212 b43b fb58 bb3b 30b8 a0bb 326e 3bbc
00000030: 64bb 8ebc 88ba 14bb 9755 403a 3e15 f63a
00000040: 4de4 483b b6f8 acbb 1fd4 043c 4d84 12bc
00000050: 72c2 4c3c 49cc 37bc 7346 173c 1251 69bc
00000060: b33e 09bc 6953 2ebb 77d9 20bc 802a 7dbc
00000070: ddbb e13b a1e6 853b c09a f6ba 5f26 f23b

layers.bn_3.weight f4 [32]
0.54491955 0.69837344 0.5359395 0.47643432 0.550404 0.6156838 0.6792572 0.6807612
0.6625657 0.48942485 0.523329 0.4630644 0.55741155 0.46758908 0.6001138 0.40636787
0.47512123 0.66070485 0.54994506 0.6626932 0.60725033 0.4822228 0.6869578 0.81703866
0.5520242 0.5836712 0.5114223 0.50232196 0.5399549 0.57519835 0.4553713 0.43999577
00000000: d97f 0b3f 9ac8 323f 5533 093f 33ef f33e
00000010: 47e7 0c3f 749d 1d3f cde3 2d3f 5e46 2e3f
00000020: e89d 293f e595 fa3e e4f8 053f c716 ed3e
00000030: 86b2 0e3f d667 ef3e 0fa1 193f 730f d03e
00000040: 1743 f33e f423 293f 33c9 0c3f 43a6 293f
00000050: c274 1b3f e8e5 f63e 77dc 2f3f 7229 513f
00000060: 7551 0d3f 7a6b 153f 92ec 023f 2c98 003f
00000070: 7c3a 0a3f 3340 133f 6d26 e93e 2047 e13e

layers.bn_3.bias f4 [32]
-0.00018701209 -0.00022485256 -0.00027795287 -0.00030516728 -0.0003612931 -0.00015941497 -0.00026572918 -0.00021901993
-0.00044095685 -0.0002522173 -0.00028875333 -0.00013337524 -0.00026784278 -0.00021934998 -0.00026619507 -7.11226e-05
-0.00025294686 -0.00013951492 -0.0003133668 -0.00029543333 -7.744691e-06 -7.1161e-05 -5.93231e-05 -0.00017482889
-0.00021208417 -0.00019547646 -0.00015958541 -0.00037488143 -0.00022755105 -8.5905616e-05 -0.00018750779 -0.00027409833
00000000: ad18 44b9 66c6 6bb9 34ba 91b9 dcfe 9fb9
00000010: f06b bdb9 a128 27b9 9151 8bb9 b7a8 65b9
00000020: 3a30 e7b9 083c 84b9 d163 97b9 a5da 0bb9
00000030: 406d 8cb9 5001 66b9 1990 8bb9 a827 95b8
00000040: f49d 84b9 c04a 12b9 614b a4b9 64e4 9ab9
00000050: 32ef 01b7 453c 95b8 b2d1 78b8 4652 37b9
00000060: e962 5eb9 d0f8 4cb9 6256 27b9 bc8b c4b9
00000070: c59a 6eb9 3a28 b4b8 bd9d 44b9 dbb4 8fb9
